outputs_ae/exp_2/model.pth (torch, 434203 bytes, 44 tensors)

gcl_0.edge_mlp.0.weight f4 [64, 4]
000000 6c a5 45 3e 31 14 92 be 2c 22 26 be 84 dc df bc
       0.19301385 -0.2853103 -0.16223973 -0.02732683
000010 ab b2 c2 be 69 d6 c7 3e 45 0c 2d 3c 0c 74 4d 3f
       -0.38026938 0.3903077 0.010562007 0.802552
000020 cb 68 43 3d 54 09 aa bd e7 0e f0 3d 4a b2 a9 3e
       0.04770736 -0.083025604 0.117215924 0.33143836
000030 94 93 43 3e 80 f2 3e be f0 13 4f bb c2 b8 c5 3e
       0.19099265 -0.18647194 -0.0031597577 0.38617522
000040 9f 83 cb 3d 7f 05 cc 3c 24 d1 d3 3e 43 12 aa 3e
       0.09937214 0.024904964 0.413705 0.33217058
000050 0f 7d b9 bd 1e 4e 53 be 9d bd 87 bc 9f 65 f1 be
       -0.09057056 -0.20635268 -0.016569907 -0.47147843
000060 27 9e 36 be 80 15 bf 3b fb 50 92 3e 25 44 47 3f
       -0.17833768 0.0058314204 0.28577408 0.77838355
000070 51 b9 ff be 91 3a 99 3e 33 7e 04 3e 32 1c 83 3f
       -0.49946073 0.29927495 0.12938766 1.024298
000080 53 1c 98 3e ad 1d fa be b9 21 f9 be 3c e5 7b 3d
       0.2970911 -0.48850766 -0.4865854 0.06149791
000090 22 ca ef 3e 77 2f 5d bd 01 55 61 3e 57 e6 2d bf
       0.46833903 -0.054000344 0.22005083 -0.67929596
0000a0 ea c9 0a 3f e1 db 23 be 78 bf be 3e 72 13 b1 bd
       0.54214346 -0.16001846 0.37255454 -0.08646287
0000b0 b3 5d 7c be 1f 44 8c 3e 7f dc 80 be 72 5d 50 3e
       -0.24645118 0.27395722 -0.25168225 0.20348147
0000c0 7e 86 49 be 69 a0 db bd db 57 f0 be 3d 6f a5 be
       -0.19680211 -0.10723955 -0.46942028 -0.3231143
0000d0 e4 36 6b 3e 6b 11 27 be 90 44 e7 3e 4a 13 9b 3e
       0.22970158 -0.16315238 0.45169497 0.30288154
0000e0 0b ce 6b bd e0 5d bc be e7 ef 88 3e 7c b4 95 3e
       -0.057569545 -0.3679037 0.2674553 0.2923926
0000f0 2d 8e ad be 25 36 9e 3e 44 81 91 3e 70 6b 6f 3f
       -0.33897534 0.30900684 0.28418934 0.9352331
000100 dc 46 79 be 54 2f 3a bd b9 7e 94 3c f5 c0 e2 be
       -0.24343437 -0.045455292 0.018126832 -0.4428784
000110 41 7f c9 be 99 e0 bc be f1 95 80 3e 58 30 0d be
       -0.393549 -0.36890104 0.25114396 -0.13787973
000120 2b 47 7c 3e 35 f7 fa 3c 95 a9 21 3e d8 c8 0b 3f
       0.24636523 0.030635456 0.15787347 0.5460334
000130 d3 82 6e 3d b3 88 fe 3d 4c b9 04 bf 98 d3 06 3f
       0.058230232 0.12428417 -0.5184524 0.52666616
000140 48 f6 a0 be e6 1d ae be c7 b7 8a 3d 10 cb db be
       -0.31437898 -0.34007186 0.06773334 -0.42928362
000150 07 f4 09 3e 1d a4 e5 be 94 ef 00 bf 1a 8e 1e 3f
       0.13471995 -0.4485177 -0.5036557 0.6193558
000160 aa 6d 50 bd 9c e6 9b 3e 58 57 2c 3e 8b b6 4e bf
       -0.050885834 0.30449378 0.16830194 -0.8074729
000170 89 02 d5 3c 24 fc 3a 3d e1 d9 9d be 69 af 65 bf
       0.026002185 0.045650616 -0.3083029 -0.8972078
000180 a1 0a 5e bc 94 7f c1 bd 40 c6 86 be aa 25 c0 3d
       -0.013552339 -0.09448162 -0.26323128 0.09382184
000190 7e 40 e0 3e 69 4f e6 bd 88 6c 8a 3e b7 84 33 3f
       0.43799204 -0.11245615 0.27035928 0.7012438
0001a0 b0 43 93 be 80 7e c7 be 01 dc df 3e 9c db b6 3e
       -0.2876258 -0.389637 0.43722537 0.35714424
0001b0 ce c0 9f 3e 51 4b 95 3d 38 5c 14 3e c1 a4 52 3f
       0.31201786 0.07289756 0.14488304 0.82282645
0001c0 1d e5 fa 3e 87 b9 a1 be 44 6d 87 3d ff 77 51 3f
       0.49002925 -0.3158686 0.06612638 0.81823725
0001d0 82 6f 86 3e cf 08 58 3e c6 9b c5 be 1e 79 c2 be
       0.2625695 0.2109711 -0.38595408 -0.3798303
0001e0 0e 5e a1 be 41 eb 4c 3d 20 2a f7 3e 02 bf 16 bf
       -0.3151707 0.050029043 0.48274326 -0.58885205
0001f0 a6 a8 08 3e 5d c7 d1 be af dc 02 bf 07 c8 ad 3d
       0.13345584 -0.40972415 -0.51117986 0.08485418
000200 76 38 9d 3d d2 77 81 3e 1d 6c c6 be 70 30 d5 bb
       0.07676785 0.25286728 -0.3875436 -0.0065060183
000210 55 29 dc 3e 97 e8 a8 3e a2 8e 92 3e a7 78 50 3f
       0.43000284 0.32989952 0.28624445 0.814341
000220 e5 14 bf 3e 7a 92 3e 3e 93 9e 93 be ac a2 e6 be
       0.3732063 0.18610564 -0.2883192 -0.45045984
000230 c6 e9 8d be 73 b1 d9 bd 25 14 b1 be e9 03 06 3f
       -0.27717417 -0.10629549 -0.34585682 0.52349716
000240 de 72 1a 3e 57 e2 ef bd 63 5f 2c 3e 9f 19 9e bd
       0.15082881 -0.11713093 0.16833262 -0.077197306
000250 e3 eb ca 3e 69 06 db 3e 3b a1 e3 bc 90 0d 82 3f
       0.39633092 0.42778328 -0.027786842 1.0160389
000260 62 25 83 bd 79 c6 bf bc eb 0d f3 be bb 50 d1 be
       -0.064036146 -0.023410069 -0.47471556 -0.40881905
000270 53 ff 9b be 51 e0 67 be bb e3 a1 3e 16 69 d9 be
       -0.30468234 -0.22644164 0.31619057 -0.42462987
000280 91 95 c2 be 4e 6b 3e 3e a4 e2 1b 3e fa e3 4f 3f
       -0.38004735 0.18595621 0.15223175 0.8120724
000290 63 1a 9c be 5f fe 7e 3d dc a0 35 be 9c 84 15 bf
       -0.3048888 0.062254306 -0.17737144 -0.5840547
0002a0 72 ca e2 be 96 74 8b be 85 c1 1e be 6f bf fa 3e
       -0.4429508 -0.27237386 -0.1550351 0.48974177
0002b0 17 ec 7d 3d f7 d4 c0 3d b2 e5 e7 3e 7c 69 65 3f
       0.06199273 0.0941562 0.4529243 0.8961408
0002c0 81 d4 42 3e 06 13 0a be 50 cd cb be 42 f5 fb 3e
       0.19026376 -0.1348382 -0.39805079 0.49210554
0002d0 ae 8f 00 be 7c b1 27 bd f0 ff fd be 85 8d ab 3c
       -0.1255481 -0.040940747 -0.49609327 0.020941505
0002e0 9a 75 bd be be e5 d2 3e 6d be db be 20 25 08 be
       -0.37003785 0.41190904 -0.4291872 -0.13295412
0002f0 9d 43 ec 3a b6 ce 80 be 8e 93 36 3e e4 c8 a4 be
       0.0018025521 -0.25157708 0.17829725 -0.32184517
000300 e9 aa 93 be 6f f0 ce bc 5c 9f 87 3e c1 4b f7 bd
       -0.28841332 -0.025261132 0.2648877 -0.12074996
000310 fd 7f 72 3e 66 7f a5 3e f9 55 f5 3e 51 ed 4e bf
       0.23681636 0.3232376 0.47917154 -0.80830866
000320 e2 35 be 3d a9 bb cb be 48 ab dc 3e b2 0d f6 be
       0.09287621 -0.3979161 0.43099427 -0.48057324
000330 c7 3e b7 3e f0 a6 92 3d 23 b6 0e bb a4 25 2f bf
       0.35790083 0.07160747 -0.0021776042 -0.6841681
000340 7b 87 b3 3d 00 14 74 3e 0a 42 6a 3d 03 d7 9a 3e
       0.08766075 0.23835754 0.057191886 0.30242166
000350 3e de ee be 70 ea b1 3e 78 c3 d6 3e 4d b1 5c 3f
       -0.46653932 0.34749174 0.41946006 0.8620804
000360 85 f7 81 3e 03 03 f4 be 20 29 60 be 0f af f3 3e
       0.25384155 -0.47658548 -0.21890688 0.47594497
000370 81 94 df be 33 a7 cb 3e 2b 2e ce be ed f7 83 bf
       -0.43667987 0.39776 -0.40269598 -1.0310036
000380 51 6b f8 3d f7 fa f6 be 24 87 1b be e2 7f 0e 3f
       0.12129844 -0.48238346 -0.15188271 0.55663884
000390 f9 14 06 3f 0f c0 19 3f ff e7 47 3c 53 95 88 bf
       0.5237575 0.60058683 0.012201308 -1.067057
0003a0 2e cf 98 3e a0 c8 99 be e3 81 91 be 48 80 b3 3c
       0.29845566 -0.30035877 -0.28419408 0.021911755
0003b0 3a 8d a8 be 38 bd b2 3e 0c 09 a5 3e 1d 41 59 bf
       -0.32920247 0.34909987 0.32233465 -0.8486498
0003c0 8a db d6 be 10 1a 58 bd f8 2b 52 3e 21 62 e9 3e
       -0.4196437 -0.05275923 0.20524585 0.4558268
0003d0 4f b8 8d be 5d d2 41 bc 88 0a e7 be 64 db f8 be
       -0.2767968 -0.01182994 -0.45125222 -0.48604882
0003e0 47 36 a6 be 39 07 d7 3e 06 bb dc 3e f8 9b 18 bf
       -0.32463285 0.41997698 0.43111438 -0.5961299
0003f0 5a dd 5c 3d ad 4a 82 3e 08 41 98 3d e8 99 35 bf
       0.053922035 0.25447598 0.07434279 -0.7093797

gcl_0.edge_mlp.0.bias f4 [64]
000000 e7 1e 65 3e 8f ae cb 3e 5d fe 4f bd 8f c7 59 bd
       0.2237507 0.39781615 -0.05077969 -0.05316883
000010 12 69 f6 3e e5 5e 08 3f 98 6b 9a be 17 ff f4 3e
       0.48127037 0.532698 -0.30160213 0.47850868
000020 15 f1 b9 3d cf 0e 9b be cf 84 a6 3e db 71 b6 be
       0.09079186 -0.30284736 0.325232 -0.3563374
000030 21 af d1 3e 81 e1 b9 be 96 a8 db 3d 27 c2 0b 3e
       0.40953925 -0.36304858 0.107255146 0.13648282
000040 78 83 1f 3e 39 1e cd 3e 6c 7b 52 be ab 58 ab be
       0.15577495 0.4006212 -0.20554894 -0.33466086
000050 02 ce ca be a7 c4 37 be 3d ba 5a be 9a de 5e bd
       -0.39610296 -0.1794611 -0.21360107 -0.05441151
000060 48 b6 92 be d9 73 15 3e e7 ac ef 3e 83 3e ef 3d
       -0.28654695 0.14594974 0.46811602 0.11681845
000070 78 9f 14 be 88 a3 b0 be 2a d1 e5 be 06 53 93 3e
       -0.14513958 -0.34499764 -0.44886142 0.2877428
000080 b9 b0 9c be 72 c2 cb 3d ee 84 9a 3d 4f c0 bb be
       -0.3060358 0.09949197 0.075448856 -0.36670157
000090 c5 2a 8e 3e 30 17 be 3e 49 38 9b 3c 59 ec 97 be
       0.27767006 0.37127066 0.018947737 -0.29672506
0000a0 04 20 60 be 7c d9 20 bd c4 0a a9 be a1 de 9d be
       -0.21887213 -0.03926991 -0.33016026 -0.30833915
0000b0 05 c0 66 be eb f4 13 be af f6 99 3d 72 b0 e6 bd
       -0.22534187 -0.14448898 0.07517754 -0.11264123
0000c0 63 79 f5 bd 02 5c 41 be 65 65 f8 be ad 4e fc 3e
       -0.11986043 -0.18882754 -0.48514858 0.49278775
0000d0 e2 d0 c8 3d e5 54 dc 3e fb 10 49 be 4a db 39 be
       0.09805466 0.4303352 -0.19635384 -0.18150058
0000e0 74 da 17 bf 8a 5e 7e bd 25 42 09 3e e0 42 f0 be
       -0.5931771 -0.06210188 0.13404138 -0.46926022
0000f0 21 40 3c be bc 0f 90 3e b5 bf 97 3e 79 4e 5d 3e
       -0.18383838 0.28137004 0.29638448 0.21611966

gcl_0.edge_mlp.2.weight f4 [64, 64]
000000 15 0c 3d 3c 96 95 05 be 36 ba 77 bd c0 6d ad bd
       0.011538525 -0.13045344 -0.06048032 -0.08468199
000010 23 fe 41 3c 60 7d 05 3d 3f 97 dc bd a6 15 ad bc
       0.011840376 0.03259027 -0.107710354 -0.021128487
000020 ac a8 93 3d 60 15 65 bd 7f fa ca 3c b2 0d 2d 3e
       0.07209906 -0.055928588 0.024777649 0.16899756
000030 e7 41 74 3e ff 90 f4 bd 1a bb 0a bd d2 f7 a0 bd
       0.23853265 -0.11941718 -0.03386984 -0.07859768
000040 4d 24 45 3d 55 2b cb bd 0d 0e 27 bc d6 6a 24 3e
       0.048130322 -0.09920374 -0.010196221 0.1605638
000050 ee 6d 10 3d 0f 33 6e 3d 5d 46 09 be fb a0 64 3e
       0.035261087 0.058154162 -0.13405748 0.22327034
000060 75 0c 69 3d 37 54 93 bd 4a c0 a9 bd 9f 26 e2 bd
       0.056896646 -0.07193797 -0.08288629 -0.11042523
000070 99 23 2b be d4 1b 93 3c 8f 36 41 3d f1 64 18 3e
       -0.16712798 0.017957605 0.04717117 0.14882256
000080 4e dd 4c 3c ee 11 bd bd 71 29 2e 3e 1c eb 80 3e
       0.012503935 -0.092319354 0.17007996 0.25179374
000090 35 9c b2 3d 07 73 02 be 3f 0f 68 3e 2f 1f 14 bd
       0.087212004 -0.12739192 0.22662066 -0.03616255
0000a0 90 90 e5 bd cf f6 e3 bc 4a 51 36 3e 20 e7 69 bd
       -0.11209214 -0.027827648 0.17804447 -0.057105184
0000b0 b7 bd 15 3e 28 6b 68 3e 87 ea 9a 3b 6a 66 b4 bd
       0.14623152 0.22697127 0.004727665 -0.088085964
0000c0 ec 47 18 3b b4 e0 71 bd 5a 39 17 be 85 df 37 3b
       0.0023236228 -0.059052184 -0.14767972 0.0028056812
0000d0 50 a5 31 bd 7d d0 a5 bd 77 fa fa 3d de b0 28 3e
       -0.043370545 -0.080964066 0.12254804 0.1647372
0000e0 18 7b f7 3c 72 af dc 3d 95 b2 cd 3d 8e ff 32 bc
       0.030210063 0.10775651 0.100438274 -0.010925187
0000f0 4c ad 6a bd 17 a6 06 3d ab 85 7f 3d f6 40 91 bd
       -0.057294175 0.03287324 0.062383335 -0.070924684
000100 ab ae 87 bd e4 fe 89 3e a8 0f 0f 3d 0d 02 ab 3d
       -0.06625112 0.2695228 0.03492704 0.083500005
000110 d4 40 24 bd 04 56 25 bd 8b d7 79 3c 57 6c ed 3d
       -0.040100887 -0.040365234 0.015249143 0.1159293
000120 41 e9 70 3d 68 3b c3 bd eb 8f d4 3d ab 10 28 3c
       0.0588162 -0.09532815 0.10379013 0.01025788
000130 82 0d ff 3d 59 82 95 3c ae 62 cd 3d 3e a6 8f 3d
       0.12453748 0.018250631 0.10028587 0.0701413
000140 ff 9d 9d bd 42 9c 81 3d a0 15 a7 bb b8 3a a6 bd
       -0.07696151 0.06328632 -0.0050990134 -0.081166685
000150 f6 6f e9 bd d9 09 e4 bd d7 4a f3 bd 85 76 88 bd
       -0.11398308 -0.11134691 -0.11879509 -0.06663231
000160 db 1a d4 3d 70 43 10 bd bd 2e 1e bd 31 f1 85 3d
       0.10356685 -0.035220563 -0.03861879 0.06540144
000170 bc 47 d0 3d 89 20 85 bd 12 e5 a0 3c 2d 60 ac 3d
       0.10169932 -0.06500346 0.01964048 0.084167816
000180 17 6d bb bd 0e 23 cf 3d b3 ae 4d bd f0 ec f3 bc
       -0.091516666 0.10114108 -0.050215434 -0.029776067
000190 60 d5 ec bd e5 f3 a9 3e d3 4a 85 3d b8 b0 a6 3d
       -0.115641356 0.3319389 0.06508412 0.08139175
0001a0 27 ac a3 3c cb 70 bd 3d 97 e7 27 bd 5b 1c dd bd
       0.01997955 0.09250029 -0.040992346 -0.10796424
0001b0 22 2b ef 3c fc ad d7 3c 2d 68 02 3d c0 3e be bd
       0.029195372 0.02632808 0.03183763 -0.09289312
0001c0 75 73 b7 bc 79 10 f4 3b 56 61 9f 3c b8 fb 72 be
       -0.022393921 0.0074482528 0.019455593 -0.23728836
0001d0 03 32 55 3d 25 a7 80 3b 21 34 bf 3d 1e 4e 1c 3e
       0.052049648 0.003926175 0.09336115 0.15264174
0001e0 61 17 c1 bd 3a 2d 29 bd 57 96 e6 bd 65 95 0c 3d
       -0.09428287 -0.041302897 -0.11259144 0.03432216
0001f0 cd fa 72 bb 08 01 c5 3d 48 91 be bd 1f 8b 08 3b
       -0.0037075758 0.09619337 -0.09305054 0.0020834876
000200 f9 c4 e9 bb ab 5a 1c 3d c4 11 3e 3d c0 c4 08 3e
       -0.0071340767 0.038172405 0.04640366 0.13356304
000210 7d 16 f0 3d 9e d8 c5 bb 0e da 00 3e fa 86 d2 3d
       0.11723039 -0.0060377857 0.12583181 0.10279651
000220 a5 b1 5c bb 5d f5 f0 bd 47 eb 72 3d 21 51 29 bc
       -0.003367522 -0.11765549 0.05930641 -0.010334284
000230 6f 13 fc 3d 94 16 e0 bd ee e0 b9 3d 88 61 30 3d
       0.12308394 -0.109418064 0.09076105 0.043061763
000240 97 0c 04 bd 21 6a 46 3d 75 bf ac bd af df 85 3c
       -0.03223857 0.048441056 -0.08434955 0.016342012
000250 29 25 5d bc db 89 38 bd c1 0c 86 bd f0 4c 12 3d
       -0.013497629 -0.045053344 -0.06545401 0.035717905
000260 73 13 3e 3e a4 54 d7 3d 68 7e d1 3d f7 a2 e5 3d
       0.18562107 0.10514191 0.10229188 0.11212724
000270 bf 3e 89 bd 20 21 f3 3d 97 a9 0a 3d d2 05 f6 bc
       -0.06701421 0.118715525 0.03385314 -0.030032072
000280 13 82 f2 3d 3c 56 8d bd ca 58 f3 3d 18 a3 ae 3d
       0.11841216 -0.069012135 0.118821695 0.085272014
000290 29 78 d3 3d 6a e5 61 3d 0f ef 1a bd cc 98 db 3d
       0.10325653 0.055150427 -0.03782564 0.10722503
0002a0 aa c7 9a 3d 1b 17 0d 3e 3a 40 aa 3d 0b db 31 bd
       0.07557614 0.13778345 0.083130315 -0.043421786
0002b0 99 9e 02 3e 4c ec 8e bd b0 5d cb 3d 05 32 32 3d
       0.12755813 -0.06978664 0.09929979 0.043504734
0002c0 a7 03 9b 3d 43 af a1 bd 9c f0 c2 bd 1c 11 5a be
       0.07569056 -0.07894757 -0.09518549 -0.21295589
0002d0 63 da c5 bd 81 28 d6 bd 9f be 7c bd 94 b4 10 3d
       -0.096607946 -0.10456944 -0.061705228 0.035328463
0002e0 5b ff 4d 3c 5f fa b0 be a7 9a 6f 3c db 05 06 be
       0.0125730885 -0.34566018 0.014624274 -0.13088171
0002f0 0b 1c a7 3d d6 f5 2e 3d bd ca be bd 4f 0a af bc
       0.08159646 0.042714916 -0.09316013 -0.02136722
000300 e0 c0 9b bd bf 52 37 3d d5 39 8d 3d 4f 5d 92 bd
       -0.07605147 0.044756647 0.06895796 -0.071467035
000310 56 3e da bd 58 a3 e2 bd 61 68 90 bd ba 30 da 3b
       -0.10656421 -0.110663116 -0.07051159 0.0066586407
000320 c4 cd 5f 3d 14 54 c3 bd db cb 45 3d d9 be 96 3d
       0.054639593 -0.09537521 0.048290115 0.0736062
000330 bb a3 a9 3d 1a a4 da bd c0 0f 41 3d c7 20 42 3b
       0.08283182 -0.10675831 0.04713416 0.0029621588
000340 e8 25 3c bd 02 3a 9d bd c8 3f ac 3c 7e 3d 5d 3e
       -0.045934588 -0.0767708 0.021026507 0.21605489
000350 e0 fb 08 3e 42 bb 5c 3e 07 a7 ab bc 81 88 cc bb
       0.13377333 0.21555808 -0.020953668 -0.0062418585
000360 43 5f 06 3e 19 e7 15 bc 21 15 b4 bd ea 1c c8 3d
       0.13122277 -0.009149336 -0.087930925 0.0977114
000370 d5 e3 79 3d b9 f9 b0 bc af 66 81 bd b0 45 be 3d
       0.061008293 -0.021603452 -0.063184135 0.092906356
000380 a7 f9 ea bc 4d 54 45 3d b9 ad 0e bd 4d d1 8c 3e
       -0.028683497 0.0481761 -0.034833644 0.27503434
000390 21 52 6a bd 29 f9 c1 bb 61 d1 45 3e c2 e9 5c bd
       -0.05720723 -0.005919595 0.19318153 -0.053933866
0003a0 a7 93 a5 3d da 41 02 bd 85 f2 96 3c a9 80 24 3c
       0.08084803 -0.031801082 0.01842619 0.010040441
0003b0 92 37 5c 3e 5d 05 40 3e ed 5f 2f 3d c8 0c 9e bd
       0.21505573 0.18752046 0.04281609 -0.077172816
0003c0 c4 e1 6e bd f0 7e 4a bd 53 d5 e3 bc 5a e0 e9 bd
       -0.058320776 -0.049437463 -0.027811682 -0.11419745
0003d0 14 08 d2 3c 4e ee b9 bb 34 da ba bc e7 5b e3 3d
       0.025638618 -0.00567416 -0.022809125 0.11101513
0003e0 87 92 ad 3d 6b dd 1a 3c 36 02 cc 3d 3b dc 90 bc
       0.084752135 0.009452204 0.09961359 -0.01768314
0003f0 f0 d0 d0 bd 13 da 5e 3d 56 4f 30 bd a1 5c 2a bd
       -0.10196102 0.05440719 -0.04304441 -0.041592244

gcl_0.edge_mlp.2.bias f4 [64]
000000 d2 6c d0 bd 44 26 9f bd c3 54 ce bd a3 55 05 bd
       -0.10177006 -0.077709705 -0.10074761 -0.032552373
000010 cc ea 38 bd a2 4b 15 3c 4f 41 8a 3b 46 0f e2 bd
       -0.045145795 0.009112271 0.004219211 -0.110380694
000020 c1 51 12 3d dd 60 f0 bc 5a 52 f7 bd bb 82 ed bc
       0.035722498 -0.029343063 -0.12076254 -0.028993001
000030 2b 79 0c bc 6f cf e5 3d 73 d3 05 3e c9 c2 65 bd
       -0.008573811 0.112212054 0.13068943 -0.056093965
000040 12 8a cd bd e3 fb 03 3e 47 02 07 3e d6 ec 9f 3d
       -0.100361004 0.12889056 0.13184462 0.07808845
000050 88 ae 04 be d9 8f ab bc 67 3a ee 3c 11 79 38 3d
       -0.12957203 -0.020942615 0.029080583 0.045037333
000060 23 3b 6d bd 8f 89 58 3c ac c5 4c bd 24 08 82 3d
       -0.057917725 0.01321639 -0.049993202 0.06349209
000070 65 98 bf bd e6 5c 99 3d 1d 19 b4 3c c1 4c 0c 3d
       -0.09355239 0.07488422 0.021984631 0.034252886
000080 54 ab 9a 3b 74 02 54 bd 51 2f ff 3b be 9b b3 bd
       0.004720131 -0.051760152 0.007787623 -0.0876994
000090 80 51 d0 3c ce db a0 3d 1d 0f 83 3d 21 80 c2 3d
       0.025429487 0.078544244 0.06399367 0.09497095
0000a0 95 34 37 bd 0c 7b 08 be 06 d0 96 bd f4 bc 03 be
       -0.04472788 -0.13328189 -0.07363896 -0.12865049
0000b0 17 01 56 3d af 14 19 3d f6 11 2c be ea 5f ad bd
       0.052247133 0.03737324 -0.16803727 -0.0846556
0000c0 49 f0 c7 bd c7 05 7d 3c 99 5d d2 ba bf 17 f5 bb
       -0.09762628 0.015443272 -0.0016049623 -0.0074796374
0000d0 8e 5b d0 bc 01 8d b1 3d 0c 8b ce 3d 7e 47 eb bd
       -0.025434282 0.086694725 0.10085115 -0.114882454
0000e0 59 fc bb bd 71 72 6a 3b 7d 4f be bd 02 cf a2 3c
       -0.09178991 0.0035773779 -0.09292505 0.0198741
0000f0 f6 92 0b 3d 42 fe be bd 91 0e ff 3c 69 0f e6 bd
       0.0340757 -0.093258396 0.031134875 -0.11233408

gcl_0.node_mlp.0.weight f4 [64, 65]
000000 eb 0d 60 bd d8 30 0a bb fb d6 bf bc 72 26 1e 3d
       -0.054700773 -0.0021086242 -0.02341794 0.038610883
000010 31 ea 6d bd 31 8f c7 3d c5 f9 cd bd 95 14 ad b8
       -0.05808467 0.097441085 -0.100574054 -8.2531165e-05
000020 fd cb 70 3d 78 45 82 3d 6e 29 b5 3d 4f 08 56 bb
       0.05878829 0.06360906 0.08845793 -0.003265876
000030 5b d1 25 3d 2d 15 8c bd 8e 81 c7 bc bb 6d c0 3c
       0.04048286 -0.068399765 -0.024353769 0.023489824
000040 bb 6e b5 bd 30 c7 4f bd fe 69 28 3d d9 21 b7 bd
       -0.08859011 -0.05072707 0.041116707 -0.08942003
000050 32 06 c3 3d c6 05 18 bd f4 64 af bc a2 31 ba 3d
       0.09522666 -0.03711488 -0.021410443 0.09091498
000060 4a 49 83 3b 11 c4 3e 3d 1e 4b 24 3e 1e b4 11 3e
       0.0040065395 0.046573702 0.1604428 0.14228866
000070 19 05 eb 3d c0 41 1b bd ae 70 03 3e 45 16 8d 3d
       0.11475582 -0.0379045 0.12835953 0.06889013
000080 1c 24 63 3d 17 93 bb bd f1 b1 1e bd 79 6e 72 bd
       0.05545436 -0.091589145 -0.038743917 -0.059187386
000090 6a 15 c7 3c b3 1f 28 bd e4 a8 a8 bd f0 cc ff 3d
       0.024302203 -0.041045856 -0.08235338 0.124902606
0000a0 fd 59 b9 bc 72 1c c1 bd b0 28 b3 bd b9 0a 50 3d
       -0.022625918 -0.09429254 -0.08747995 0.050791476
0000b0 29 9f 58 bd 58 c5 d1 ba 06 09 5d bd 49 5c 24 bd
       -0.052886162 -0.0016004248 -0.053963684 -0.040127072
0000c0 2e 55 a5 3d 33 b8 2e 3e a0 c3 a2 3d 96 e6 f5 3c
       0.08072887 0.17062454 0.07947469 0.030017179
0000d0 7d 31 33 3d e7 49 98 bd 5b 07 0d bc 1d 18 99 3d
       0.043748368 -0.07435971 -0.008607711 0.07475302
0000e0 04 c7 9b bd 32 af bf 3d 67 1f 4a bd 51 29 af bd
       -0.076063186 0.09359588 -0.049346354 -0.08552802
0000f0 fd 0f ba 3d 2f 63 09 3e d9 78 17 3e af 82 93 bd
       0.09085081 0.13416742 0.14792193 -0.0720266
000100 6c 49 ad bd 3f 9e 85 3d 19 63 06 be 6f 0b 86 3d
       -0.0846127 0.06524324 -0.1312374 0.065451495
000110 36 a5 c7 3d 42 a0 32 bc 34 6a ab 3d e2 db d4 bd
       0.09748308 -0.010902466 0.08369866 -0.10393502
000120 af b1 47 3d 86 ea 8d 3d 17 69 e2 3d f9 d6 c9 bb
       0.048753437 0.069294974 0.110552005 -0.00615966
000130 ab 91 59 3d 6c 99 a7 bd 6a 97 cf bb d7 d4 a6 3c
       0.053117435 -0.0818356 -0.0063351886 0.020365162
000140 40 fb 70 bc 51 f4 da 3c 0a b0 92 3c df 9e 81 3d
       -0.01470834 0.026727827 0.017906208 0.063291304
000150 f0 26 04 be dd 1b 2a 3d e0 f9 e3 bd a0 ba 36 bc
       -0.12905478 0.04153048 -0.11131644 -0.011152893
000160 14 4c 9a 3d 66 6a c0 bd 4f 32 12 bd 8b 0d 13 be
       0.07534042 -0.09395294 -0.03569251 -0.14360635
000170 b9 73 d6 3d 4d 99 ff bc 90 40 9a bd e0 5f 93 bc
       0.10471291 -0.03120103 -0.075318456 -0.017990053
000180 30 54 5c bc 07 15 cb bd 2e 10 fe 3c ff fc d7 bd
       -0.013447806 -0.0991612 0.031013574 -0.10546302
000190 ca 85 b7 3d 82 a9 c7 3d f7 43 2e 3d eb 78 3f bd
       0.08961065 0.09749128 0.042545285 -0.046746176
0001a0 8a f9 44 be 74 bd c8 3d 96 a3 de bd 92 5c 05 be
       -0.19235817 0.0980176 -0.10871045 -0.13023594
0001b0 bd ef 35 3d 5f 1b 30 3d 11 d3 54 3d 67 da 53 3c
       0.044418085 0.042994853 0.0519591 0.012930489
0001c0 27 ba 95 bc c0 b6 ff bd 44 49 93 bd d1 1d 51 3d
       -0.01827724 -0.12486029 -0.07191709 0.051053826
0001d0 41 69 89 bd 38 71 77 bd 77 8f 27 3d 42 ca 6a bd
       -0.06709529 -0.06041071 0.040908303 -0.057321794
0001e0 6f 83 6b bc 93 36 e6 bd f7 ae 2d bd bc 7b ce 3c
       -0.014374598 -0.11240878 -0.042403188 0.025205486
0001f0 d4 f0 2d 3d 6d ab e5 3b b6 db 38 3d 7d ed 92 3d
       0.042466 0.007008961 0.045131408 0.071742035
000200 51 77 58 3d f5 4a 44 3d f2 0d db 3d 49 6b 06 3d
       0.052848164 0.047923047 0.10696019 0.03281716
000210 4c 80 b4 3d 7b 9b 91 3d 2f e8 b9 bd 25 fd b7 bd
       0.08813533 0.07109734 -0.09077489 -0.0898383
000220 47 9e c8 3d d3 ed 9d 3d 22 63 62 bd b6 d0 88 3d
       0.09795814 0.07711377 -0.05527032 0.066804335
000230 d3 38 3c 3d 90 72 ab bd 9e c2 ff bc 7b ee d5 3d
       0.04595263 -0.083714604 -0.03122073 0.10445877
000240 a0 4e 01 bd 5b d7 98 3c 55 d4 3c 3d ef 7f ae 3b
       -0.031569123 0.018657377 0.046100933 0.0053253095
000250 11 77 7f 3d 1d a0 96 3d a7 f7 dc bd c7 be cf 3c
       0.06236941 0.07354758 -0.107894234 0.025359524
000260 c0 61 58 3d ca f2 e2 3c ee 78 25 bd 9b 53 9e 3d
       0.052827597 0.027703661 -0.04039853 0.0773079
000270 38 4e 7e bd 7b db d0 3d 1d af 00 3d 24 99 34 3d
       -0.062086314 0.101981126 0.031417 0.04409136
000280 0b 6d e2 ba e1 69 f8 bc 52 f3 82 3d f7 6f b3 3d
       -0.0017274929 -0.030323924 0.06394066 0.0876159
000290 84 cb 54 3d b2 f1 ca bd fc ba 7d 3d 36 90 25 3c
       0.0519519 -0.09909381 0.0619459 0.010105183
0002a0 0e c4 ea bd 1d 4c 33 be 24 8a c4 3c 17 ad 53 bd
       -0.11463176 -0.17509504 0.023991652 -0.051678743
0002b0 af 0d e6 3d 78 e0 23 3c 3a 41 bb bd 22 93 55 bd
       0.11233079 0.010002248 -0.091433 -0.05214227
0002c0 99 2a a2 3d 76 ea 1d 3d 33 41 f4 3d 65 30 b5 3d
       0.07918281 0.038553677 0.11926498 0.08847121
0002d0 fc e1 3e 3d 5a b0 02 3e 2a 1b 91 bd cb d8 ec 3a
       0.046602234 0.12762585 -0.07085259 0.001806998
0002e0 1f ba e5 bc 4e 43 2c bd 74 80 d2 3c 71 a3 ad 3d
       -0.028042851 -0.042056374 0.025696017 0.084784396
0002f0 14 f1 69 bc 28 01 1b 3d 2a 75 d6 3d 5d 41 fd 3c
       -0.014278669 0.0378429 0.10471566 0.030914957
000300 01 12 1e 3b 21 27 a5 bd 7d 30 77 bd c6 ff af 3c
       0.0024119618 -0.08064104 -0.060348976 0.021484267
000310 6f 9a ca bb 93 c1 1b bd 10 58 13 be b3 80 d3 bd
       -0.0061829607 -0.038026404 -0.14389062 -0.10327282
000320 ee 82 71 3d 86 8d bf bc 18 e1 24 be 9d c7 00 be
       0.058962755 -0.023382913 -0.16101491 -0.12576146
000330 7a 88 c4 bd 66 fe 12 be 6a c0 55 3d 0b fa 9f 3d
       -0.09596343 -0.14354858 0.052185453 0.07811364
000340 e4 25 fc bc 7a 3d 94 3d 05 bf 26 3c 6c 47 6b bd
       -0.030779786 0.07238288 0.010177379 -0.05744116
000350 0a 57 56 bc 06 a2 40 bd 68 c0 6d bd e6 ae af 3d
       -0.013082275 -0.047029518 -0.05804482 0.08578281
000360 3f cb 86 bc 3d 5a 31 ba 67 1a 27 3d 1e 2e 65 3d
       -0.016454337 -0.0006765461 0.040796664 0.055952184
000370 01 84 6a 3c 91 ed 2d bc 1e 70 32 3d 3d 70 a4 bd
       0.014313699 -0.010615722 0.043563955 -0.0802922
000380 bc f0 41 bb 6c 80 5f 3c cd 6d be bc 83 8b c0 bc
       -0.0029592952 0.013641458 -0.023245716 -0.023504024
000390 71 53 c6 3d 1e f1 c0 3c 52 6b 02 be c7 55 3b bd
       0.09683884 0.023552474 -0.12736252 -0.0457361
0003a0 0a fb c3 bd c9 7b 64 3d 0e 22 48 bc 50 c5 0f bb
       -0.09569366 0.055782113 -0.0122151505 -0.0021937676
0003b0 ee f4 43 3d 1d 93 3f bd 68 2b 7f 3d d8 1f a5 bd
       0.047841005 -0.046771158 0.062297255 -0.08062714
0003c0 bd f6 39 3d 45 fb a7 3c 63 4b b9 3d 56 64 fe bc
       0.045401324 0.020505557 0.09047582 -0.031053703
0003d0 bc 10 39 bc 66 9f 0c be eb 17 91 3d 41 4e 2b bc
       -0.011295494 -0.1373268 0.0708464 -0.010455669
0003e0 9d 0c ed 3c a2 62 0d be e5 2d 09 bd c5 23 c9 3d
       0.028936679 -0.13807157 -0.033491034 0.098212756
0003f0 98 a3 98 bd 9d e2 67 3c 0b 33 24 3d 73 7a 4f 3d
       -0.07453078 0.01415315 0.04008774 0.050653886

gcl_0.node_mlp.0.bias f4 [64]
000000 5a 8f a2 bd 27 21 a9 bd a7 b7 83 3d 21 ff 86 3d
       -0.079374984 -0.082582764 0.06431513 0.06591631
000010 21 18 cf bd 70 0f 0a 3d 50 c9 14 bd 8f 57 73 3d
       -0.10112024 0.03370613 -0.0363248 0.059409674
000020 10 d2 e4 bc 36 4e 40 3d de a8 4f 3d d0 24 2b 3d
       -0.027932197 0.046949588 0.050698154 0.041783154
000030 9d 11 4d 3d b6 a4 6b 3d dc 12 bd bd 60 d1 0d 3e
       0.050065625 0.057530127 -0.09232113 0.13849401
000040 44 19 da bd 9a b4 89 3d 7a b4 a8 bc c0 1e 4b 3d
       -0.1064935 0.067239 -0.02059387 0.049589872
000050 4d ef 75 bd 45 98 98 3c 32 5c f6 bc 2a d7 13 3e
       -0.060042668 0.018627295 -0.030073259 0.14437547
000060 f7 62 5e bd 7d bd c1 3d 6f da c6 bd ec 8d a5 3d
       -0.0542936 0.0945997 -0.09709632 0.0808371
000070 22 46 d0 bd 46 1a 4b bd 37 a7 f4 3d 85 58 04 3e
       -0.10169627 -0.049585603 0.11945956 0.12924393
000080 53 cf 9c 3b 38 b1 a4 bd 0f 10 a1 bd 33 7f 93 3c
       0.004785457 -0.08041614 -0.07864391 0.01800499
000090 f3 c1 98 3d b7 cb a1 3d b9 4b ed bd db ba 30 bd
       0.07458868 0.07900184 -0.115867086 -0.04314695
0000a0 da e6 39 3d 38 77 f7 3d 81 dd a9 3d f2 be df bc
       0.045386173 0.12083286 0.08294202 -0.02731273
0000b0 0a 24 09 3d 71 96 80 bc 79 a9 1d bd e0 3a c8 bb
       0.033481635 -0.015696736 -0.0384917 -0.006110534
0000c0 d7 b3 7b 3d 48 68 d3 bc e6 2e 8f 3d e2 4d 74 3c
       0.061450806 -0.025806561 0.06991367 0.014911147
0000d0 3c bf 2f 3d 75 11 25 bd 3b 6a 0d 3d 0c a4 ea 3b
       0.042906985 -0.04029985 0.034525137 0.007160669
0000e0 07 d9 ce bd 71 71 ef 3b 18 a6 96 3d 3e 77 17 3c
       -0.100999884 0.0073072244 0.073558986 0.009244738
0000f0 32 3f 54 3d ef 5a 97 bd 94 11 a5 bd 9f 0e 27 3d
       0.05181808 -0.07390391 -0.080599934 0.040785428

gcl_0.node_mlp.2.weight f4 [64, 64]
000000 24 14 39 3c e6 96 2f bd 34 c1 eb 3d 56 6b 61 3d
       0.011296306 -0.042868517 0.1151146 0.055034004
000010 93 38 cb 3d 13 50 3b be 97 fa b8 3a f8 91 10 be
       0.099229 -0.18292265 0.0014112768 -0.14118183
000020 d1 eb 89 bd dc 01 bd 3c be e7 4c 3a b5 af 06 bd
       -0.067344315 0.023072176 0.00078165147 -0.03288241
000030 f6 d0 3d bc 44 90 d7 bd a1 73 03 be 9a c3 96 bd
       -0.011585465 -0.10525563 -0.12837078 -0.07361527
000040 52 52 ab 3c cf d4 91 bd 06 f6 9d bc c5 d1 cf 3d
       0.020913277 -0.07120668 -0.019282352 0.10147432
000050 14 09 c1 bd df 2c 2f bc 48 35 d9 bd a2 c3 67 be
       -0.0942556 -0.01069185 -0.10605866 -0.22633222
000060 e0 5e 19 be f5 46 86 3c 5c 8c ad bd 9b c6 00 be
       -0.14977598 0.016391257 -0.08474037 -0.12575762
000070 f4 0e 47 3d 5a 7d 8f bc cf 1a 8d 3d 48 ef b1 3d
       0.048598245 -0.017515827 0.06889879 0.086882174
000080 07 d4 16 bd 79 20 1c 3d a6 32 18 be a4 7d 37 3d
       -0.0368233 0.038116906 -0.14863071 0.044797555
000090 3c da 2e be c6 94 bf 3c 89 9a 04 be b2 92 4e 39
       -0.17075437 0.02338637 -0.12949575 0.00019700339
0000a0 64 a1 80 bc f0 e6 24 3e 53 08 93 3d f5 e5 c0 bd
       -0.015701957 0.1610372 0.07179322 -0.09418861
0000b0 36 59 1d be b6 1f ef bd 34 be 07 be b1 8a 7b bd
       -0.15366063 -0.1167597 -0.1325615 -0.061411563
0000c0 10 64 af bd ec 49 b5 bd b5 bf 18 3d 22 7a 01 be
       -0.08564007 -0.0885199 0.0372922 -0.12644246
0000d0 53 16 25 be e3 7c 1c 3d 38 5c b5 bd cf 5b 11 be
       -0.16121797 0.03820504 -0.0885548 -0.14195178
0000e0 cf dd cc bd 4f bb 65 3d 1d f0 03 be d5 4d 00 bd
       -0.10003244 0.056086835 -0.12884565 -0.031324226
0000f0 97 28 6d 3d d5 a9 1c 3c 47 ac 7c 3d 25 b3 b1 3d
       0.057900038 0.0095619755 0.061687734 0.08676747
000100 a4 7f e6 bc 44 a3 9b 3d 9b 29 b8 3d 20 ab 16 3d
       -0.028137036 0.075995 0.089923106 0.03678429
000110 03 f8 a0 bd 9c cd f0 3d e1 0d de bd 23 b7 00 3d
       -0.078598045 0.11757967 -0.10842491 0.031424653
000120 ca 25 c6 bd 86 02 06 3d b1 55 f9 3d de 97 80 bb
       -0.096751764 0.03271725 0.121745475 -0.003924354
000130 36 58 5b be 97 b1 08 be be 4d 98 3d 01 a6 24 bc
       -0.21420369 -0.13348995 0.07436703 -0.010049344
000140 57 cf 79 3d 50 6c f7 bc f3 0c 75 3c fd 13 f7 bc
       0.06098875 -0.030203015 0.014956701 -0.030160898
000150 86 4c 70 3d 46 0d 30 3d 70 6f a8 3d e8 4c 8f 3d
       0.05866673 0.04298141 0.0822438 0.069970906
000160 75 6c e3 3d e0 d3 09 3e c0 af b6 bd 92 ca 4e 3d
       0.11104671 0.1345973 -0.089202404 0.050486155
000170 b4 71 5d bc 92 59 be bc 4d 48 be 3d 42 16 29 3e
       -0.0135158785 -0.02323607 0.09291134 0.16512397
000180 18 87 42 bd e4 de 06 3e d3 7e a7 3d 96 5c 65 3d
       -0.047492117 0.13170964 0.08178487 0.0559965
000190 ab 1d 97 bd 46 43 fa 3d 63 f3 f9 3d ab 7f b4 bb
       -0.073787056 0.12219863 0.122046255 -0.0055083833
0001a0 5a 53 1e bd 2f c7 5b bd e0 e7 13 3e df 49 13 be
       -0.03865371 -0.053656753 0.14443922 -0.14383648
0001b0 95 71 3f bc a1 03 1e be e2 b2 09 bb 02 89 a0 3d
       -0.011684795 -0.15431072 -0.0021011163 0.07838632
0001c0 3d 02 a9 3d 7d f6 3b bd 9f 2b cb bd 59 fd 23 3d
       0.0825238 -0.045889366 -0.099204294 0.040036533
0001d0 95 6d 38 3c 85 c4 d8 bd eb ae e9 ba 64 96 87 bd
       0.011256595 -0.10584358 -0.0017828619 -0.066204816
0001e0 93 fb 60 bc 3b a2 0c bc 77 da 1b 3d 07 8d 65 3c
       -0.013731855 -0.008583601 0.03805014 0.014010674
0001f0 d7 7e 49 bd b8 23 62 bd 80 63 07 3e f0 5a 37 3d
       -0.04919323 -0.055209845 0.1322155 0.04476446
000200 96 d6 e8 3d 8f a7 88 bd 57 4f f8 3c 5f 12 e1 bd
       0.11369054 -0.06672584 0.03031127 -0.10989832
000210 fc 4c f0 bc ec 8e c6 ba 52 7a 4b bd 31 4d c3 bc
       -0.029333584 -0.0015148795 -0.0496772 -0.023840519
000220 43 52 8c bd 14 d5 46 bd 9a 5b cf 3c f4 30 54 3d
       -0.06851628 -0.04854305 0.025312234 0.051804498
000230 c2 2e ae 3c 25 e7 8b 3d de ed 8d bd c4 56 5c bd
       0.02126253 0.06831197 -0.06930135 -0.053793684
000240 bd 86 87 bd 6e d8 06 be 6f 60 b5 3c 7e e4 63 3d
       -0.06617496 -0.13168499 0.02214071 0.05563783
000250 b4 44 c9 bd 10 ab 41 bd de f7 13 bd 69 12 08 be
       -0.09827557 -0.04728228 -0.036125056 -0.13288273
000260 75 d6 56 3d 00 83 a6 3c f6 6f 06 bd 8f c3 e6 bc
       0.052450616 0.020326138 -0.032821618 -0.028169421
000270 27 0a f9 3d f1 24 1b be 18 53 73 bd 64 fb 76 be
       0.121601395 -0.15150811 -0.059405416 -0.24119335
000280 fa bb 73 3d da 73 d1 bd 03 0e 40 3c 4a 8c d6 bb
       0.05950544 -0.10227175 0.011722091 -0.0065474855
000290 b8 0a 57 bd 59 13 db bd 9b ee 28 bd ac 2f 40 3d
       -0.052500457 -0.1069705 -0.041243177 0.046920463
0002a0 ba 1c 2e bd b8 34 c9 bc cf 25 68 3d 16 a9 bd 3d
       -0.042507865 -0.024561271 0.056676682 0.09260766
0002b0 6c a9 db bc 31 e4 60 bd 3a d5 94 3d b9 00 69 bd
       -0.026814185 -0.05490512 0.07267232 -0.056885455
0002c0 f3 ba 0c 3d ba a5 85 3d dc bd ae 3d 51 89 91 3d
       0.034357976 0.065257505 0.085323066 0.07106269
0002d0 f3 d9 64 3c 4b e9 9b bd fa 69 84 3d fd 3b e5 bc
       0.013967979 -0.076128565 0.06465526 -0.027982706
0002e0 a0 88 cd 3d 54 2c 42 bd 22 4b af bd ef 74 34 3b
       0.10035825 -0.047405556 -0.08559252 0.0027535518
0002f0 b2 1c e6 3c 82 f7 84 3c 41 fe 03 3c 3b 6d fb 3d
       0.028089855 0.016231302 0.008056224 0.122766934
000300 d5 84 98 bd 12 69 71 3c a0 9d 16 3e 40 50 44 3c
       -0.07447211 0.014734523 0.14708567 0.011982024
000310 26 ec 98 bd 8b 7b ae 3d 12 8d 80 bd 65 91 07 3d
       -0.07466917 0.08519658 -0.06276907 0.033097643
000320 22 43 6d bd e7 c5 01 3e 5b 3d 07 3e 19 e6 7c bc
       -0.05792535 0.1267315 0.13206999 -0.015435719
000330 cc ed be 3d 2a cd 3f 3d d2 a2 ef 3c 1a 56 a8 3d
       0.093227 0.04682652 0.029252443 0.082195476
000340 56 26 6e bb 5e 95 3d 3e e4 e9 c6 3d 52 08 ec 3d
       -0.0036338768 0.1851401 0.0971258 0.115250245
000350 a2 c8 15 bd 8f 59 65 3e d7 0b fb bc c4 b7 52 3c
       -0.03656829 0.22397445 -0.030645294 0.012861196
000360 8d 12 6a 3b 77 75 f6 3d 24 e1 d5 3d 23 7e 69 3e
       0.0035716624 0.120341234 0.10443333 0.22802024
000370 e9 3a c7 bb a2 10 12 3e 67 14 fe 3d ce 9f 09 3e
       -0.0060800207 0.14264157 0.12406235 0.13439867
000380 98 67 fc bd 20 51 f7 3d 76 5e 1a 3e 02 3e 86 3d
       -0.123244464 0.1207602 0.15075096 0.06554796
000390 1f 00 db bc ec 84 36 bd ba b2 a8 3d e8 a4 97 3d
       -0.026733456 -0.044560358 0.082372144 0.074045
0003a0 76 4a 63 3e d4 07 f9 3d 76 fe 34 3d eb 47 99 3d
       0.22196373 0.12159696 0.044187985 0.074844204
0003b0 b4 51 8c 3e af 3e 01 3e ff 4d ef 3d 6c d2 85 3e
       0.27406085 0.12621568 0.116847984 0.26137102
0003c0 4b 1d 10 3c 64 3e 50 3d 2c de d4 3d f3 99 29 3e
       0.0087960465 0.05084075 0.103939384 0.16562633
0003d0 b0 47 00 bd 2e 94 bd bd 27 cf ac 3d b2 14 f5 3d
       -0.031318367 -0.09256779 0.08437949 0.11966838
0003e0 10 f7 00 3e 59 08 20 be 47 8d ac bc 35 13 3e 3d
       0.12594247 -0.15628184 -0.02106346 0.046405036
0003f0 3a dc 26 3e 18 99 9c 3c 6d 76 fe 3c 94 ad 15 3e
       0.16294947 0.01911597 0.03106233 0.14616996

gcl_0.node_mlp.2.bias f4 [64]
000000 a6 e7 96 3c 67 00 97 3d 4b cd b3 bc 4e b9 23 be
       0.018421005 0.073731236 -0.021948477 -0.15988657
000010 f1 2d 08 3d 6f 69 49 bd 12 53 e6 bd b2 93 05 bd
       0.03324694 -0.049172815 -0.11246313 -0.032611556
000020 b9 95 ef bd 31 a5 80 3d b3 da 3c 3c 07 81 9b 3d
       -0.11698479 0.06281508 0.011526751 0.075929694
000030 43 bf 94 3d 10 c7 8b 3d 10 a7 88 3d e7 ba 42 3b
       0.07263043 0.068250775 0.0667249 0.0029713453
000040 5a ab 8a 3d 3c 7d 10 be 20 56 15 3d 14 fe 9a 3d
       0.06770964 -0.14110273 0.03645909 0.07567993
000050 6a 57 15 3e a9 6b 24 3d 77 0d fb bc 6b a3 ae bc
       0.14584127 0.040141735 -0.030646069 -0.021318158
000060 34 a4 ac 3c 87 39 b3 bd 7c b1 b0 3d 06 a9 61 3d
       0.021074392 -0.08751207 0.086276025 0.055092834
000070 12 6d ac bb 91 9b 19 3e eb 5d 0f 3b c3 38 b1 bc
       -0.0052620256 0.1500075 0.0021876048 -0.021633511
000080 d9 28 f2 3d 94 74 fc 3c fa 98 d6 bc b4 20 35 3a
       0.11824197 0.030817308 -0.026195992 0.0006909475
000090 30 87 3d be d5 94 e8 3d 05 fb 5b 3d fe 86 01 be
       -0.18508601 0.113565125 0.053706188 -0.12649152
0000a0 18 03 db 3c 11 54 42 bd 21 01 07 bc ec 69 c2 bd
       0.026734874 -0.047443453 -0.008240015 -0.09492859
0000b0 a5 a6 c9 bd 5d 9f 8d 3d 8b 66 06 3e fa 6e 18 bc
       -0.09846238 0.06915162 0.13125055 -0.009303803
0000c0 0b f3 50 bd b1 1b 04 be d6 39 e6 3d 2e 5b a3 bd
       -0.051013034 -0.12901188 0.112415 -0.079763755
0000d0 da 4a 03 3e af a6 dd 3d d4 5b aa bd a4 fe af 3d
       0.12821522 0.10822808 -0.08318296 0.08593491
0000e0 46 05 2d 3d 24 5b e9 3d e8 2c db 3c 08 7a 9d 3d
       0.042241357 0.11394337 0.026754811 0.07689291
0000f0 3c b5 bf 3d f7 30 c3 bc 3a 0e b6 bd 26 d8 2e 3d
       0.093607396 -0.02382706 -0.08889432 0.042686604

gcl_0.coord_mlp.0.weight f4 [64, 64]
000000 88 47 59 be e7 99 b2 bc fe 5c f0 bd f9 24 a9 3c
       -0.21218693 -0.021801902 -0.11736487 0.020647513
000010 49 7f d7 bc b2 ba 11 be 54 44 a1 3d 74 66 22 3d
       -0.026305811 -0.14231375 0.07874361 0.03964849
000020 c8 a9 ba bd 69 6c 7e bd 0f 85 dc bd ca 05 07 be
       -0.091144145 -0.062115107 -0.107675664 -0.13185802
000030 dc f1 ed bd 8b 9b 01 3e da d8 9f 3d 03 70 d7 bc
       -0.11618397 0.12656991 0.07805033 -0.026298529
000040 aa 1e f6 3d e4 46 45 bd 8b af 6b bd dc c7 c0 3d
       0.120175675 -0.04816331 -0.057540458 0.0941312
000050 9e ff 2b bd 4c bb 30 be 19 64 96 3c 70 8b d2 bd
       -0.041991822 -0.17258948 0.018358277 -0.10280502
000060 13 fd d2 bb c7 c2 39 3c 49 34 00 bc 77 8e 87 bd
       -0.00643886 0.011337942 -0.007824966 -0.0661897
000070 a2 00 3e bd 5c d8 91 3d b6 d5 fe 3c 83 90 03 3e
       -0.046387322 0.071213454 0.031107765 0.12848096
000080 6b b8 3a 3e 5c f4 0f be 36 2e 8b bd 58 55 2e 3b
       0.18234412 -0.1405806 -0.067959234 0.0026601162
000090 71 ab ca 3d 8d 4e 05 3d b0 b9 a3 3d 29 d8 b7 bd
       0.09895981 0.032545615 0.079944015 -0.08976776
0000a0 63 bb 4b bc a5 20 40 3c 5a 90 4f 3d 6e fa b4 bc
       -0.012434813 0.011726533 0.050674774 -0.02209207
0000b0 71 c4 8c bd c7 7f 52 bc 19 3f 0a be 0e 89 94 3b
       -0.06873406 -0.012847847 -0.13500632 0.0045329398
0000c0 19 98 fd bd f5 62 98 bc 9f 3b ca bd ff 98 b8 bd
       -0.12382526 -0.018601874 -0.09874653 -0.09013557
0000d0 52 cd 16 bd 4e 78 5f 3b f1 91 1d 3d f9 bd f0 3d
       -0.036816902 0.0034098807 0.03846926 0.117549844
0000e0 cb 7f c2 bd b8 3e 5e bd 60 16 77 bc 61 9c 21 bb
       -0.09497031 -0.054259032 -0.015081018 -0.002465986
0000f0 4b bd b3 bc 06 44 0d be 7f 6b 23 bd 14 b4 06 3d
       -0.021940848 -0.1379548 -0.03989744 0.03288658
000100 44 53 80 bd e8 5d d9 bc 51 ca ad 3c 84 2f 5d bd
       -0.06265882 -0.026534036 0.021214636 -0.054000393
000110 1e 61 9d 3c 72 56 bf bd d0 6a ad bd 0e a3 fe 3c
       0.019211348 -0.0934266 -0.084676385 0.03108361
000120 25 4e b7 3c 24 ae 01 3e ad d7 0c 3e 1e f9 cd 3d
       0.02237613 0.12664086 0.13754149 0.10057281
000130 3b dd 60 3d 74 9a 7b 3d ea ba 2a 3d ff a9 17 3e
       0.05489848 0.061426595 0.04168216 0.14810942
000140 98 bc b4 bd 4e df c1 3d 55 d6 f8 bc cc d0 a8 3d
       -0.08825034 0.0946642 -0.030375639 0.0824295
000150 fc ca 1e 3d 0d 44 08 bb 68 eb a4 bd 05 1b 21 3e
       0.0387678 -0.0020792515 -0.08052713 0.15732963
000160 4f a6 e9 3d 2b 0d 17 3e 41 6d 08 3e 0c 63 89 bd
       0.11408674 0.14751117 0.13322927 -0.06708345
000170 7d 9a e7 bd 17 11 de bd c7 3e d1 3c be bd 04 bd
       -0.11308763 -0.108431034 0.02554263 -0.032407515
000180 2f ef 3d be 17 71 95 3d 48 14 89 3d c6 5d 34 bd
       -0.18548273 0.07296961 0.066933215 -0.04403474
000190 11 3d 0a 3e ac 57 15 be 55 5e f2 3d f1 36 0d 3e
       0.13499857 -0.14584225 0.11834399 0.1379049
0001a0 90 da 2d be a6 4b 8b 3c 4e 71 c3 bd bd ef 8e 3d
       -0.16977906 0.017003845 -0.095430955 0.0697932
0001b0 88 6c f5 3d ba f9 ab 3d 74 9b 33 3d e7 db 70 bd
       0.11983591 0.08397241 0.043849424 -0.058803465
0001c0 63 5b 72 3e ad 04 ea bd 49 f7 d8 3d 0d dc 4a bc
       0.23667674 -0.11426673 0.10594041 -0.012381566
0001d0 22 ae 8c 3d c9 b5 d6 3c df 7a e4 bd 9c 49 94 3d
       0.06869151 0.026209729 -0.11156248 0.072406024
0001e0 95 0e 04 3e bb c3 55 bc a3 84 2b bd e2 2b 4e 3e
       0.12896188 -0.013047154 -0.04187454 0.20133927
0001f0 0d 98 f3 3d 78 9e a1 3c 7a 66 38 bd ef cf d7 3b
       0.11894236 0.019728884 -0.045019604 0.006586067
000200 f3 c9 55 bd a8 20 c6 bd 37 1b 3f be 95 a0 cb bd
       -0.052194547 -0.096741974 -0.18662725 -0.09942738
000210 24 0a 0d be 47 97 7d 3c 09 bc 26 be e1 8f 99 3c
       -0.137734 0.015477962 -0.16282667 0.018745365
000220 8d 99 ed bd 96 9a 0e bd b9 69 aa bd f8 39 32 bc
       -0.11601553 -0.034815393 -0.08320946 -0.010878079
000230 3d 7b 39 3d 02 3c 8f bd 9b db e6 3d be d2 0d bd
       0.045283545 -0.069938675 0.11272355 -0.034624808
000240 0e 55 29 bd 65 9b 06 3e a7 45 e9 bb 7c 47 85 3c
       -0.04134088 0.13145216 -0.007118899 0.016269438
000250 63 b3 d6 3d 73 33 70 be ea 44 53 3d 26 39 c9 3d
       0.10483434 -0.23457126 0.051579393 0.09825353
000260 97 c6 fe bb 4b 08 3a 3b 73 d1 9b be b3 b6 c1 3d
       -0.0077751386 0.002838629 -0.30433235 0.09458675
000270 15 c2 88 bc c2 91 ed bd 32 e4 b7 3c 8a 5a 2d bd
       -0.016694108 -0.11600067 0.02244768 -0.042322673
000280 f5 82 32 3e 13 af 08 be a5 ce 51 bd a1 37 e9 bd
       0.17432769 -0.13348036 -0.051222462 -0.113875635
000290 2b 70 d5 3c e1 00 97 bd 3d 98 fa bd bf a7 d9 bd
       0.026054462 -0.073732145 -0.122360684 -0.10627698
0002a0 3b 62 a4 b9 61 a8 54 3d 15 de fd 3c 8a 63 9a bc
       -0.00031353705 0.05191839 0.030989686 -0.018846292
0002b0 d8 08 76 3c d7 fb 9a 3d 58 5a 0d be 2c 52 0e be
       0.015016757 0.07567566 -0.13803995 -0.13898534
0002c0 33 d6 03 be 56 98 61 3d 8d 21 88 be fd 9f 15 bd
       -0.1287468 0.05507692 -0.26588097 -0.03652953
0002d0 5b f2 6b bd ee 64 75 3c 9a 30 1d 3d ac a2 41 3d
       -0.057604175 0.014977677 0.03837643 0.047274277
0002e0 7d d1 b7 bc 19 db 20 bd 94 75 01 be 7f 0f 92 3d
       -0.022438759 -0.039271448 -0.12642509 0.07131862
0002f0 23 b7 fa bd b2 f2 85 bd 04 8f 25 be f8 77 1f be
       -0.12241962 -0.06540431 -0.16167837 -0.15573108
000300 c0 d2 0a bd 42 f2 2b 3d 81 49 1c 3d 81 fa c6 3d
       -0.033892393 0.041979082 0.038156036 0.097157486
000310 37 51 d3 3d 94 56 c6 bd 02 53 16 3e e2 16 8d bd
       0.10318225 -0.09684482 0.14680102 -0.0688913
000320 42 59 26 bd 4d 45 5a 3e 10 39 06 3e 80 4d be 3d
       -0.040612467 0.21315499 0.13107705 0.09292126
000330 07 39 06 3e 76 c2 de bd 51 4a cb bd 45 a6 85 3d
       0.13107692 -0.10876934 -0.09926284 0.06525854
000340 38 78 bb 3c 32 05 9d 3d c1 b2 4a bd be 4b 35 3b
       0.022884473 0.076670066 -0.04948688 0.0027663554
000350 3d 23 b6 bd 46 ad ed 3d 4c ae 0a bc d4 d3 e2 3d
       -0.0889344 0.11605315 -0.008464407 0.11075559
000360 df 0b 8d bd 15 c5 83 3d fc 15 0c 3d f7 6b 1d 3d
       -0.0688703 0.06434075 0.034200653 0.03843304
000370 aa 82 14 be db 79 02 be 7c d9 6c 3e 04 a1 cb 3d
       -0.1450297 -0.12741797 0.23129839 0.09942821
000380 fc 0a 3b be bc fc b6 bd b8 03 a8 bd 24 4e 01 be
       -0.18265909 -0.08934924 -0.08203834 -0.12627465
000390 28 2b 67 3d 55 3a ec bc 9a 63 a2 3d ac 53 00 3e
       0.05643764 -0.028836409 0.07929154 0.12531918
0003a0 99 80 d0 bd 4c 72 ae 3d ea af 1e 3e 91 f7 7b bc
       -0.10180778 0.08517894 0.15496793 -0.015378849
0003b0 33 e5 8f bd 59 9b c1 3c a0 49 83 3d 8a cf 1a bc
       -0.07026138 0.023633646 0.06410527 -0.009448895
0003c0 3e 3b c1 3d 23 42 1a bd 5d 2d 9d 3d f8 d4 d7 3d
       0.09435128 -0.03766073 0.07674668 0.105386674
0003d0 e1 f2 07 bd 0e 46 1a 3d fe 8b 9d 3b 1f ec 80 bd
       -0.03319061 0.037664466 0.004807948 -0.062950365
0003e0 70 29 1a bd c0 6e 7c 3c 09 6b 6b 3d 1d fc 69 3e
       -0.037637174 0.015407264 0.057475124 0.2285008
0003f0 8d b9 ce bc bb 82 5f 3d 76 7e 14 3d 5a 34 45 3d
       -0.025234962 0.054568034 0.036253415 0.04814563

gcl_0.coord_mlp.0.bias f4 [64]
000000 0b 2d a5 bc 78 9e da bd 6e 7e 11 3e 8c 7a 7e 3d
       -0.02016308 -0.10674757 0.14208385 0.06212859
000010 f6 bc cf 3d 6b 99 da 3d d9 be 5a be 9c 17 13 3e
       0.10143463 0.106737934 -0.21361865 0.14364475
000020 83 88 48 bd 96 89 58 bd 8b cd b8 bd 10 01 db 3d
       -0.048958313 -0.052865587 -0.09023579 0.10693562
000030 86 24 23 3e ab b1 8d 3c fe 1b bc bb ad 76 0b 3e
       0.15931901 0.017296633 -0.0057406416 0.1361949
000040 2f ba f7 3d a5 c5 09 bc 19 99 f3 bb a1 0a 4f 3d
       0.120960586 -0.008408939 -0.007434022 0.050547246
000050 d6 24 54 bd ab 93 e7 3d d9 9a 1d be 1c 2c 80 bd
       -0.051792942 0.11307462 -0.15391101 -0.06258413
000060 76 a4 af 3d 3b 9b 83 bd 12 48 17 3e 2e 2c 85 bd
       0.0857629 -0.06426092 0.14773586 -0.06502567
000070 bb b7 35 3d 88 d4 f9 3d d6 93 9d 3d 8b a2 da bd
       0.044364672 0.1219874 0.07694213 -0.10675534
000080 ac ba 96 bc a6 4b 9f 3d b8 89 83 bd e8 3b 0c bd
       -0.018399559 0.07778101 -0.06422752 -0.03423682
000090 c1 5b 22 bd 27 64 17 3e e0 2b ca 3c ab a1 56 bc
       -0.039638285 0.14784299 0.024679124 -0.013100068
0000a0 92 5f 0a 3e f3 57 c5 bd 55 3b c1 3c 8a ba 37 bd
       0.1351302 -0.096359156 0.023587862 -0.044855632
0000b0 b1 30 c9 ba 88 96 b5 3d 8e 19 d7 bd a2 d2 e8 3d
       -0.0015349594 0.08866602 -0.10502921 0.113683
0000c0 fe 6a b2 3d 28 b6 95 3d 15 17 09 bd 36 4f b1 bc
       0.087118134 0.07310134 -0.03346928 -0.021644216
0000d0 70 ce 13 be cc d8 50 3b 69 d7 45 3d b4 cb bd 3d
       -0.14434218 0.0031867502 0.048301134 0.09267369
0000e0 3a 55 f3 bd a7 67 18 be c3 ad a1 3b 92 81 22 3e
       -0.1188149 -0.1488329 0.004934044 0.1586974
0000f0 89 71 f6 bb 7f 0e 60 3c f9 95 c9 bc 9e c6 e1 3d
       -0.0075208587 0.013675331 -0.024607645 0.11024211

gcl_0.coord_mlp.2.weight f4 [1, 64]
000000 d2 7f 07 3d 01 ab 1d bd a8 85 05 3d fb 85 be bd
       0.033080883 -0.03849316 0.032598168 -0.093028985
000010 cf 67 f4 bc 18 10 df 3d b4 ad 79 bc 89 2d 37 3e
       -0.029834656 0.108917415 -0.015239168 0.17888464
000020 8e 67 8a 3d b4 4d 43 bd 8a 54 26 3d f3 b0 1b bd
       0.06758033 -0.047681525 0.040607966 -0.03801055
000030 dc 74 b3 3d bf f6 4b bd 58 34 6f 3d 6d d9 e1 3d
       0.087625235 -0.049795862 0.05839953 0.11027799
000040 87 54 27 bd d6 e9 12 bd ea e2 25 bc 25 fb 97 3d
       -0.040852096 -0.035867535 -0.010124901 0.07420949
000050 d7 23 b5 bd c4 6c 02 bd 56 e2 97 bc bf dd c0 bd
       -0.088447265 -0.03184201 -0.018540543 -0.09417295
000060 6b ed 79 bd c2 b5 97 bc a1 80 40 3e d5 3e a8 bd
       -0.061017435 -0.018519286 0.18799068 -0.08215109
000070 63 35 41 bd 80 e7 1a 3e e8 74 89 3d c4 c8 b1 bc
       -0.047170054 0.15127373 0.06711751 -0.021702178
000080 34 5e 93 bd c4 6f 90 3d be b8 15 bd d2 8c 84 bd
       -0.07195702 0.070525676 -0.036553137 -0.06472172
000090 3b e2 43 3e 76 06 10 3e a5 d0 cd bd 3c 89 05 3e
       0.19129269 0.14064965 -0.100495614 0.13040632
0000a0 e7 94 c0 3d 6e 7c 48 bd c3 81 f7 bc 1e 51 da bc
       0.09403401 -0.04894679 -0.030213242 -0.026650008
0000b0 2f 2e 85 bd 8f 1b 21 3e e3 ca 3d bc 85 b8 b8 bd
       -0.065029494 0.15733169 -0.0115840165 -0.09019569
0000c0 6d 37 2b bd 0a 86 18 3d f9 2c aa bc 7a e7 aa bd
       -0.041800905 0.037237205 -0.020773398 -0.08344932
0000d0 31 ae 40 bc 40 f0 21 bd 93 20 1e bd 0c 23 66 3c
       -0.0117602805 -0.03953576 -0.038605284 0.014046442
0000e0 05 67 05 bd 5a dd b4 bd dd a7 ad b8 4b ab 19 3e
       -0.03256895 -0.08831282 -8.28055e-05 0.1500675
0000f0 31 a8 4e bd 5a 0e 19 3e 3e 9c 46 bd 43 ce bd 3d
       -0.05045337 0.14946881 -0.048488848 0.09267857
