outputs_ae/exp_1/model.pth (torch, 433569 bytes, 44 tensors)

gcl_0.edge_mlp.0.weight f4 [64, 4]
00000000: 0f50 a63d 4a52 cbbe 18ea 7fbe 84c4 5bbe
00000010: 5b92 c1be b9f6 c83e 4387 a23c 7ef7 663f
00000020: 0599 8c3c fc95 e8bd 41fa b73d 16e5 f93e
00000030: 2696 bf3d 5f5d 91be 610c b8bd 6d85 84be
00000040: b8a5 e53c e234 3ebd 7124 af3e 0177 f33d
00000050: 6938 8ebe 2480 c9be 9924 11be 54d3 b7be
00000060: fa48 3cbe 3d69 9839 1839 8d3e 888d 553f
00000070: ca12 06bf 35cc 8c3e 6d2a ea3d ae30 8b3f
00000080: 0920 2c3e d414 1ebf d393 15bf 54ce 2a3e
00000090: f81b f43e 32a3 3abd 9372 563e 7c98 3cbf
000000a0: 22db f23e 794f 69be 43d2 a73e 1ff8 08bf
000000b0: 68cf bbbe 6546 1d3e 7fe5 aabe f093 c33d
000000c0: 90ee adbe e913 80be 02a7 26bf 5268 1abe
000000d0: 8ec8 163e aa80 7bbe 7584 be3e 5c38 b23e
000000e0: 3db6 34bd 527a b5be 05f8 6c3e 884c dabd
000000f0: e6a1 bbbe 6c22 903e bbe7 893e 4aa7 823f
00000100: 0daa 9ebe 9833 e5bd 7b54 a03c 8db8 da3e
00000110: 55e8 d6be ad49 cabe 4096 2c3e f560 273e
00000120: 6e9a 5b3e 5d4f a7ba 306d ea3d 8b2a 053f
00000130: be73 bbbd 8eaf d0bc 7fab 13bf 28bb c43e
00000140: 240e 98be c235 a5be 53c4 683d cb55 01bf
00000150: a77a 103d b647 0cbf cf1c 02bf 67ef 113f
00000160: b743 0dbd bf49 a43e 8b21 203e b384 75bf
00000170: 59a9 abbd 196c 83bd 79f8 cabe d5a2 4bbf
00000180: 6647 843b 9b76 9dbd 52c4 94be 66f4 48be
00000190: b3ac d43e 9b50 0abe 974b 853e e7f6 473f
000001a0: aa06 c2be 7a41 f6be 47e1 bc3e 8209 a33e
000001b0: 0805 9a3e 9fb8 7c3d 37e1 043e 7ce4 683f
000001c0: b9e2 f53e ebbb a6be f503 733d 9bb8 613f
000001d0: 3b37 003e 89c5 963d a58d f4be f592 ffbe
000001e0: c0be 96be 2cfb 903d e75e f63e 0c95 4abf
000001f0: 8c9c 303d c203 00bf 7d18 10bf 87b5 103e
00000200: 10f2 60bd 222e f83d 336b e8be 1ad1 a23d
00000210: e929 b73e 2be9 833e b3f2 683e b82f 413f
00000220: 5079 593e d10c cf3c c266 95be 35c4 71bf
00000230: a351 b8be caa5 41be bca1 babe da3b fe3e
00000240: f687 073e 28dc 0abe d096 0e3e 6b12 f23e
00000250: 7c28 cb3e 0243 db3e 122e 7fbc 8733 8f3f
00000260: 3015 46be d67b 1cbe 6916 24bf 0e1a 58bd
00000270: 0640 b7be 5d31 8fbe dee3 8d3e 73a4 ffbe
00000280: 0422 cbbe 6455 2d3e 447c 0f3e 39c6 5c3f
00000290: 26e6 92be 5f53 a43d 6aec 21be 8954 f0be
000002a0: 6eef f5be bb99 9ebe ae1e 2fbe 76a8 f33e
000002b0: 5642 1c3d 8d00 903d a6af e83e 3ca8 853f
000002c0: ee0a c53d aa62 6abe 401e debe 212f ae3e
000002d0: 83d3 53be ad5e fabd 5465 18bf 3741 e63d
000002e0: e670 f9be a9e9 963e d2ad f7be a98c 8dbe
000002f0: 0a3d 37bc 5c75 87be 2ef7 253e 7f66 08bf
00000300: 6f38 adbe 27ec 99bd 5163 5a3e 8910 243d
00000310: 244e 723e d065 a53e b5f1 ea3e 13f5 53bf
00000320: 9a70 c03d 3530 cbbe 1c15 c83e 0d39 0c3e
00000330: 2502 c43e 18b7 c53d 6dfc 6f3c ff0a 4fbf
00000340: 1785 133d 6b32 3f3e 1fed d83c 8b18 e33e
00000350: cbc1 fabe e306 a63e 2f94 cf3e 1d65 7a3f
00000360: 94b0 8b3e ed49 eabe dc92 5bbe ebd2 043f
00000370: 0b3a 00bf fac6 aa3e 2d70 c8be 41f2 bcbf
00000380: bdf8 2a3d 6bda 0fbf bf3c 57be a16d f83e
00000390: 81e3 0a3f d58e 1e3f 9287 cf3c b7dc 8bbf
000003a0: 9993 c53e 490a 5abe 9daf 67be 8653 283e
000003b0: d650 a0be 9cf9 ba3e c5bf a13e 5670 6cbf
000003c0: 102a e1be bf45 95bd b451 423e 0142 013f
000003d0: 9588 bcbe d67b d3bd 86a9 f0be cfb2 63bf
000003e0: 0f6e a7be 71cf d53e 0c42 d33e 59bd 34bf
000003f0: 3b51 863d 5345 883e 47af 8c3d 0fbc 4dbf
0.08120739 -0.3971122 -0.24991643 -0.21461684 -0.37806973 0.39250734 0.019839888 0.90221393
0.01716281 -0.11356732 0.08983279 0.4880759 0.093548104 -0.2839155 -0.08986736 -0.25883046
0.028033122 -0.04643715 0.3420749 0.118879326 -0.27777413 -0.39355576 -0.14174117 -0.35903418
-0.18387213 0.00029070108 0.27582622 0.83419085 -0.5237242 0.27499548 0.11433873 1.0874231
0.16809095 -0.6175053 -0.58428687 0.1668027 0.47677588 -0.04556579 0.20942144 -0.7367017
0.4743281 -0.22784223 0.32777604 -0.535036 -0.36681676 0.15358885 -0.33378217 0.09549701
-0.3397107 -0.2501519 -0.65098584 -0.15078858 0.14724943 -0.245608 0.37210432 0.34808624
-0.04411911 -0.35444885 0.23141487 -0.106591284 -0.36646956 0.28151262 0.2693461 1.0207303
-0.30989113 -0.11191481 0.019571533 0.42718926 -0.4197413 -0.39509335 0.16854191 0.1634558
0.21445629 -0.0012764741 0.11446607 0.5201804 -0.091529354 -0.025474336 -0.5768356 0.3842404
-0.29698288 -0.32267576 0.056827854 -0.50521535 0.03527322 -0.5479692 -0.5082521 0.57005924
-0.034488406 0.32087514 0.15637796 -0.9590561 -0.0838191 -0.06417102 -0.39642695 -0.79545337
0.0040368317 -0.07688638 -0.2905603 -0.1962448 0.4153801 -0.13507311 0.26034233 0.7811112
-0.3789571 -0.4809683 0.36890623 0.3184319 0.30081964 0.061699506 0.12976538 0.9097364
0.48024538 -0.32565245 0.059329946 0.8817231 0.12521069 0.073618956 -0.47764316 -0.49916807
-0.29442406 0.07079157 0.4811928 -0.7913368 0.043118045 -0.50005734 -0.56287366 0.14131747
-0.05491835 0.12118174 -0.45394287 0.07950039 0.35774162 0.2576383 0.22748832 0.7546344
0.21237683 0.025274666 -0.2917996 -0.94440013 -0.35999784 -0.189109 -0.3645152 0.49655038
0.13235459 -0.13560545 0.13924718 0.47279677 0.39679325 0.4282456 -0.015574949 1.11876
-0.1934402 -0.15281615 -0.64096695 -0.052759223 -0.35791034 -0.2796735 0.2771291 -0.49930152
-0.3967439 0.16927105 0.14012247 0.86239964 -0.28691214 0.08023714 -0.15812841 -0.46939495
-0.48034233 -0.30976662 -0.17101547 0.47589463 0.0381492 0.07031355 0.4544651 1.0441966
0.09621225 -0.228892 -0.43382454 0.34020332 -0.20686154 -0.12225089 -0.59529614 0.112429075
-0.48718947 0.29475144 -0.48374802 -0.27646378 -0.011183986 -0.26456726 0.16207573 -0.53281397
-0.33832118 -0.075157456 0.21326949 0.04005483 0.23662621 0.3230424 0.45887533 -0.8279583
0.09396477 -0.39685217 0.39078605 0.13693638 0.38282886 0.09654063 0.014647585 -0.80876154
0.036015596 0.18671577 0.026480256 0.44354662 -0.48975977 0.3242713 0.40542743 0.97810537
0.27283156 -0.45759526 -0.21442741 0.51884335 -0.50088567 0.33354932 -0.39148083 -1.476143
0.04174112 -0.56192654 -0.21019267 0.4852114 0.54253393 0.61936694 0.0253332 -1.0926732
0.3858917 -0.21292986 -0.22625585 0.16438112 -0.31311673 0.36518562 0.3159162 -0.9235891
-0.43977404 -0.07288694 0.1897648 0.5049134 -0.36822954 -0.10326354 -0.47004336 -0.88944715
-0.32701156 0.41759828 0.41261327 -0.7060142 0.06558462 0.2661539 0.06869369 -0.8036508

gcl_0.edge_mlp.0.bias f4 [64]
00000000: 7345 e53d e2ce cc3e 438c a6bd 793c 1abe
00000010: 0fe2 d13e f6e3 b03e 1340 9dbe b590 e83e
00000020: 997c 1cbd f5bc 96be facc 833e 9611 f4be
00000030: e983 883e 9919 e4be 9a35 f73d ea38 df3d
00000040: e8eb b63d 29b5 bf3e 8228 73be ab04 f8be
00000050: dfe5 c1be 02cd 8ebe 0ff1 49be b62c 28be
00000060: 15b4 89be 8793 fc3d efe9 c03e 0a50 d83d
00000070: 7ea1 1ebe 36f5 f6be d731 dbbe b623 4a3e
00000080: f31c e0be 2920 df3c a8db aebd f227 e6be
00000090: e8b5 843e cd53 be3e f436 e2bd 102d b3be
000000a0: eb35 71be 945f aebc bf2f bcbe 3212 aabe
000000b0: e187 a3be 7239 67be 52e4 2bbd 3ba4 00be
000000c0: 88d4 2dbe d08d 41be a6d7 f7be 8c89 043f
000000d0: 8d17 3e3d 5971 d03e 1a9f 35be 659b 7bbe
000000e0: 0338 2cbf 796c 31bd 4dc9 623e e106 e8be
000000f0: 39dd 50be 6e7e 423e f087 963e 3e3f 693e
0.11194887 0.4000159 -0.081322215 -0.15062131 0.40992782 0.3454892 -0.30712947 0.45422903
-0.038204763 -0.29441038 0.25742322 -0.47669667 0.2666314 -0.4455078 0.120707706 0.10899527
0.08931714 0.37442902 -0.23745921 -0.4844106 -0.3787069 -0.27890784 -0.19720863 -0.16423306
-0.26895204 0.12332826 0.37678477 0.10562141 -0.15491292 -0.48233956 -0.42811462 0.19740185
-0.43772087 0.027237015 -0.0853799 -0.4495235 0.25920033 0.3717331 -0.11045638 -0.34995317
-0.23555724 -0.02128581 -0.36755177 -0.33217007 -0.31939605 -0.22580507 -0.04196579 -0.12562649
-0.16975605 -0.18901753 -0.48406714 0.5177238 0.04640918 0.40711477 -0.17736474 -0.24570997
-0.6727297 -0.04331634 0.22147103 -0.45317748 -0.2039689 0.18993542 0.29400587 0.22778031

gcl_0.edge_mlp.2.weight f4 [64, 64]
00000000: c63e 9dbc 0b99 93be 79a1 95bc e325 29bd
00000010: 7cf4 873d f540 f2bc 6427 89bd 15d6 5ebb
00000020: ec60 13be ce62 793c 5a24 b23d 9baf 3e3d
00000030: 7a37 0b3d 8c5f 98bd 8612 8c3c c299 27bd
00000040: d97c 1bbe 3f80 3ebd edbf 0d3d 39b2 f4bb
00000050: 728d 363d 8471 acbd 2747 0abd 205b 5a3d
00000060: fb55 8ebc 50f2 cebc 9241 f1bc 0e5c 9ebd
00000070: 126a 3bbe 06cf cdbd b4c6 dc3d a696 40bc
00000080: 0a6e 1cbd 3f13 3ebd 41ac d23c 2ceb ca3d
00000090: 11d4 fb3d d5df 83be 015d c0bc b0aa ae3c
000000a0: 060a b7bd df2d 0cbe 55c5 da3d 63c4 5fbc
000000b0: 96a8 603d 1da2 a5bd 27f0 2abe c776 7dbc
000000c0: 511d 813d 3a89 8c3b a93f c6bd a734 6c3e
000000d0: 7bc4 09bc 7ec8 12bd 3806 9a3d f0a3 c2bd
000000e0: 3a9c 48bc 1029 ca3e 7100 9f3d ec52 793d
000000f0: a9f2 10bc 69ab 3abe 9bc7 fb3d 865b 4f3d
00000100: 5ab6 b2bc f180 7f3e 3ca2 453d 5197 d63d
00000110: 8f5c 3bbd a1f0 e23c 40ec 923c 1caf ef3d
00000120: 8af2 bb3b 8334 c8bd 7131 c23d 2ea1 d63b
00000130: 7ad3 c73d ea51 9b3c 832b c93d c491 8e3d
00000140: a3e1 d13d 0b95 973d 691e 73bb 24ec 0ebe
00000150: b42a d93c 509d 25be c05b f8bd 2c77 55bd
00000160: ced7 ff3d 8b9b 1cbd 5253 1bbd eb7f 7f3d
00000170: d5e1 e13d cac6 98bd 93ce 963c eee9 643d
00000180: 80c7 aebd f487 c53d efbb e6bc e80d 8cbd
00000190: 33fe e5bd 3aa1 a13e 4401 e23c e3a5 b03d
000001a0: 6f1b f33c 418c 093e 4d38 8abb 0133 ddbd
000001b0: 96e7 923c d63c fdbc 2a5a df3b 0ce3 b2bd
000001c0: c213 9abc 5911 483b 3f3e d53c 5678 b8be
000001d0: a9a5 753d 5b8e 0b3b 70fe 0c3e b018 3f3e
000001e0: 5b39 83bd 51cd 5abe c09c 7cbd 994b 0d3d
000001f0: c7e5 bc3b 86c7 c43d 325a c8bd 9263 14bc
00000200: 8f53 c73b 6566 973d a0eb 823d 12ca 103e
00000210: e870 eb3d 77a4 6c3d f7f8 073e d764 f83d
00000220: 8f9d 95bd deae 01be 1be6 533d 375c 0dbd
00000230: 3940 4c3d 2647 dabd 0a79 b33d 18dd 513d
00000240: 0fa7 543e 9a02 663d 1cc2 9cbd 9637 65bd
00000250: 44b2 e53c 254d c8bd cdb0 acbd 4aa6 f73b
00000260: e9b3 3a3e fb15 e13d 4165 d63d 9f7f fb3d
00000270: 0366 21bd e260 a33d 6e69 ee3c 3058 95bd
00000280: 7d46 d23d 5c00 83bd faf6 d83d 1c19 513d
00000290: f7fc e73d 2f1c e63d 53eb d9bd 6193 d73d
000002a0: b4df bf3d 644c 193e b111 ad3d 9413 1cbd
000002b0: b745 e03d 0036 09be b455 6c3d e3ad 173d
000002c0: 7389 9c3d a224 acbd 3745 b7bd 0ec5 a2be
000002d0: 847f 97bd dcd5 ccbd eaed 66bd d44d 5d3d
000002e0: 35e6 4f3c b10b e6be cc8d c03c 7896 0dbe
000002f0: d903 b83d 7fdd b63c 0156 c9bd d02a 5abd
00000300: 60ca 95bd b7b8 713e 65d3 653d 237b ddbd
00000310: d342 2abe 6841 73bd 8f4b d6bd 5c72 283d
00000320: 457d e3bd 51d8 43be 61e8 f5bc 090b 833c
00000330: 4644 20bd 576b 2bbe 075c b9bc 83e6 87bc
00000340: 29f4 2a3e 813e 10be 7f06 863a 64c7 743c
00000350: 6931 8c3d 57c1 8b3c 977c 0abe d290 bcbc
00000360: 1f80 da3d 9a5e 17bd 7b5c 17be b7d5 d93d
00000370: 2106 153e ba4c a1bd ffcc 15be b9ab 45bb
00000380: a918 43bd 64ea c93c 3725 f6bc 8f7a 063e
00000390: 520e b0bd f681 3c3e b922 223d 5aef 01be
000003a0: 9153 b03d 13aa 21bd 1ff5 99bc fff1 f0bc
000003b0: c65c 0e3e 4a3c 23bd b33b f9bc 8cee 2ebe
000003c0: f887 ffbd 1b73 0bbe 806d c9bd aca4 d6be
000003d0: c0eb 743d b6f0 26bd 4ee6 023d dc64 ec3d
000003e0: f6a6 3c3d 066f b6be 2866 393e fd12 dcbd
000003f0: cfc9 14be 66f6 e5bb 5d12 02be 7849 34be
-0.019194972 -0.288277 -0.018265473 -0.041295897 0.066384286 -0.02957199 -0.06696966 -0.0034002115
-0.14392442 0.015221311 0.0869834 0.04655419 0.033988453 -0.07440099 0.017098676 -0.04091812
-0.15184344 -0.046509024 0.034606863 -0.007467535 0.044568487 -0.08420089 -0.033759262 0.05330956
-0.017374983 -0.025262028 -0.029450212 -0.07732402 -0.18302181 -0.10049252 0.10780087 -0.011754667
-0.03819088 -0.046405073 0.025716903 0.09908137 0.12296308 -0.25756708 -0.023481848 0.021321625
-0.08937459 -0.13689373 0.10682169 -0.013657662 0.054848276 -0.08087561 -0.16693173 -0.015470213
0.0630442 0.0042888196 -0.09680111 0.2306696 -0.008408661 -0.035835735 0.075207174 -0.09503925
-0.012244279 0.39484453 0.07763756 0.060870096 -0.008846917 -0.1822945 0.12293931 0.050624393
-0.021815468 0.24951531 0.048250422 0.1047808 -0.045742568 0.027702631 0.017934918 0.11703321
0.0057357 -0.09775641 0.094820864 0.006549976 0.09757133 0.018959958 0.09822752 0.06961396
0.10248115 0.074014746 -0.0037096983 -0.13957268 0.02650962 -0.16173291 -0.12126875 -0.052115604
0.12492333 -0.038234275 -0.037921257 0.06237785 0.11029402 -0.07459791 0.01840905 0.055887155
-0.08534145 0.096450716 -0.028165786 -0.0683859 -0.11230125 0.3156832 0.027588494 0.086253904
0.029676167 0.13432409 -0.0042181374 -0.10800744 0.017932694 -0.030912798 0.0068161683 -0.08734712
-0.01880825 0.0030527918 0.026030658 -0.3602931 0.05997244 0.0021294567 0.13768935 0.18661761
-0.06407424 -0.21367384 -0.061672926 0.034495924 0.0057646963 0.096083686 -0.097828284 -0.009056943
0.006082959 0.07392577 0.06392598 0.14139584 0.114961445 0.057774033 0.13278566 0.12128609
-0.073054425 -0.12664363 0.051733118 -0.03451177 0.049865935 -0.10658102 0.08763321 0.051236242
0.20766853 0.056154825 -0.07654211 -0.055961214 0.028039105 -0.09780339 -0.084321596 0.007557665
0.18232693 0.109905206 0.104685314 0.12280201 -0.039403927 0.07977463 0.029103007 -0.07292211
0.10267351 -0.06396553 0.10593982 0.051049337 0.11327546 0.11235844 -0.10640588 0.10526157
0.0936884 0.14970547 0.0845064 -0.03810461 0.10950797 -0.13399506 0.05769892 0.037031066
0.07643404 -0.08405425 -0.089487486 -0.31790966 -0.073973686 -0.10001728 -0.056379236 0.0540293
0.012689163 -0.44930795 0.023505114 -0.1382693 0.08985109 0.022322414 -0.09830857 -0.053263485
-0.073139906 0.2360562 0.056109805 -0.10814502 -0.16627054 -0.059388548 -0.104636304 0.041124687
-0.11107878 -0.19125487 -0.030018033 0.015996473 -0.03912761 -0.16740166 -0.02262689 -0.016589409
0.16694702 -0.14086343 0.0010225325 0.014940117 0.06845362 0.017059965 -0.1352409 -0.023018274
0.106689684 -0.036955453 -0.14781372 0.10636466 0.14553119 -0.078759626 -0.14628981 -0.003016217
-0.04763094 0.024647899 -0.030047042 0.1313269 -0.085964814 0.18408951 0.039583895 -0.12688962
0.08609689 -0.039468836 -0.01879364 -0.029412268 0.13902578 -0.039852418 -0.030423975 -0.17083186
-0.12477106 -0.13618128 -0.098353386 -0.4192251 0.05979514 -0.040756904 0.031957917 0.11542675
0.046057664 -0.3563158 0.18105376 -0.10745809 -0.14530109 -0.0070178984 -0.12702318 -0.17606151

gcl_0.edge_mlp.2.bias f4 [64]
00000000: 723c febc 06d7 e3bd 1c87 e6bd 22ea 2dbd
00000010: 134b 84bd f783 71bc 599f 15bd 8045 04be
00000020: 80f7 bc3d 828d 21bd 9a56 09be 7f20 c1bd
00000030: dd35 0bbd c468 7e3d b9cd fa3d 7b45 9bbd
00000040: 2b95 bbbd 4e2b 983d fc4d 003e 8ef5 983d
00000050: 7911 b3bd 9979 1ebd 47ca 30bd d2d6 a33c
00000060: b532 dabc f6bd 20bd a96d 8cbd c1f1 7f3d
00000070: eab6 9dbd fdd7 473c 2359 d83b 8c2a b33b
00000080: 6494 4ebd fa69 c1bd 913c d3bb 7a70 43be
00000090: 7817 223b 4886 c33d 4df4 8b3d 2be2 b93d
000000a0: a79c 29bd 2728 a7bd f66f c3bd e9f4 1dbe
000000b0: b12e 7a3d 2cfe 36bd 705a e1bd f996 3dbe
000000c0: 6cd9 dcbd 2130 b83c 3fec 513d 567d b0bc
000000d0: 126f 53bd 4a66 ec3d 39f6 debb 7969 43bd
000000e0: 47a1 c8bd 598b 56bd 0d38 97bd e812 29bb
000000f0: e599 a33a 3da6 e3bd 0d84 0d3c d69b f7bd
-0.031034682 -0.11124997 -0.11256239 -0.042459615 -0.06459632 -0.0147409355 -0.03652892 -0.12917137
0.092268944 -0.039441593 -0.13411942 -0.09430026 -0.033986915 0.06211163 0.1224627 -0.07581612
-0.09159311 0.07430135 0.12529749 0.07468711 -0.08743567 -0.038690183 -0.043161657 0.019999895
-0.026635507 -0.03924366 -0.068568535 0.062486414 -0.07700904 0.012197492 0.006602423 0.0054677185
-0.050434485 -0.094440416 -0.006446429 -0.19085875 0.0024733227 0.095470965 0.06833706 0.09076341
-0.04140916 -0.08161955 -0.09542839 -0.15425457 0.061079685 -0.04467599 -0.11003578 -0.18514623
-0.107836574 0.022483887 0.051250692 -0.02154414 -0.051619597 0.115429476 -0.0068042544 -0.04770801
-0.09796386 -0.052378986 -0.07383738 -0.0025798623 0.0012481777 -0.11115692 0.00863744 -0.1209027

gcl_0.node_mlp.0.weight f4 [64, 65]
00000000: 00f3 19bd 1a18 6e3c d072 8fbd 7d6f 59bd
00000010: fe9c 32bd 264b 473d 135d a9bd 2573 f3bb
00000020: 9869 783d 4d23 903d a283 c53d 9a74 04bc
00000030: 3422 513d 4daf 1fbe 9e88 b5bc de93 5f3c
00000040: cb60 22be 8092 bbbc 73a6 b03d 7399 adbd
00000050: b978 a33d 7286 8abd 09e6 23bc bf03 bb3d
00000060: 14c1 31bd ea18 a33d fae2 0f3e cd84 f3bc
00000070: 6488 ba3d 9b66 35bd fd4d 193e 8bb1 ec3b
00000080: b494 6cbc 42c5 c2bb 9e94 50bd f483 67bd
00000090: d9dc d83c 9e23 21be 9600 a0bd cf8f b83d
000000a0: af6d 0dbd 701e 66bd 7ad1 aabd 834a ef3c
000000b0: 9b8c 54bd 3ed8 96bd 32d0 06bd cb1a 1bbd
000000c0: c7fd bd3d eef1 3d3d 9bb9 b33d 061d fd3c
000000d0: dc61 19bd 85e4 8cbd 2083 9bba cca8 d03d
000000e0: fd1c 7fbd 8923 7c3d 3025 2cbd 2c77 cebd
000000f0: 9e4d 953d 4663 1a3e 807b 133e 4d10 5cbd
00000100: c637 9abd dc05 c13d 4f4e f9bd 129a 403d
00000110: 2eeb dc3d 780e 363d bffe 943d 780d 5fbd
00000120: cb3e ca3d 717b 4c3d 769b 5f3e a738 ac3d
00000130: da1b f03d 1a42 8fbc 3712 8fbc 74b7 b83c
00000140: 8ebf 25bc 2a74 8e3b 205f 0a3d 64a5 803d
00000150: 5edd 00be 3d13 dd3c 211e c7bd fe7f bb3d
00000160: feea 0e3e 495b 69bd 3aed 61bd 4904 3ebd
00000170: 3877 a63d 4d58 c63b c6fd 8ebd 1569 ab3c
00000180: 8aea b7bc 1ea3 b7bd d9d0 60bd 0bc0 86bc
00000190: 385a 2a3e 444f 1d3e 22a9 173d d85e 58bd
000001a0: 0120 51bb 6909 1d3e 269a aebd 199c a0bd
000001b0: 57ac 553d b1c0 113e 7e09 c23d 8b78 4d3d
000001c0: e6f1 a43c 2d32 92bd 1042 85bd 8d0a ae3d
000001d0: e7ea 44bc bd9a 90bd e58a 803c 0957 a0bb
000001e0: d899 153d ae29 abbd cbcc 1dbd ebed 8d3d
000001f0: dcfe 533d 623c 2f3d a26d c93d 8e86 1d3e
00000200: 8843 bd3d b4fd d93d 2260 013e 2244 99bc
00000210: 78a7 7e3d 5f16 333d 8400 43bd 5677 febd
00000220: 4d7b 163e 351f 173e a0d0 01bd 26a3 d03d
00000230: d3bf 173e 8e1f 1bbd 9e10 083c cc93 a93d
00000240: 6c74 6abd c851 953c e20a 2b3c 9540 f7bc
00000250: 8d83 c93d 9d57 6e3d 049f babd ca31 bc3c
00000260: c81e b53d 270e 0c3d 6832 5ebd e353 133e
00000270: 8314 e03c 2be9 673d 297d 1d3c 79ee fc3d
00000280: 7c63 b73c 47f7 57bd b7dd a33d 5c23 323d
00000290: c7a2 ca3d 6edf 89bd 8fed a93d b13d 02bc
000002a0: 8bdf c7bd fb05 9ebd f419 853d 4ce9 65bd
000002b0: 4d33 293e 74f2 803b a2df 44bd 96b0 92bb
000002c0: a6f6 d03d a610 b43d 5da3 0c3e 2fbb 973d
000002d0: 3cbe cc3d 5585 343e 24e8 c9bd 4bac 193c
000002e0: f125 a83c 69b9 6ebb 1866 a73d 1ae9 583d
000002f0: b0c1 993a bce0 463c 0373 1f3e 6a6f 8e3d
00000300: c156 433d 3db9 47bd 69f6 73bc 80d7 b53d
00000310: edfb 58bb 692b 99bd b16a 03be de88 06be
00000320: a1a8 863c cf78 10bd 9090 21be a38c c6bd
00000330: 715d 11be c825 30be 8380 2f3d 3bc4 503d
00000340: b20e a8bd a70d 843d 1fff a2bc e99e a6bd
00000350: 0582 fdbc a6f9 8bbd 7c45 9bbd 2881 743d
00000360: 6994 a0bc 8746 d9ba c0d9 ff3b 422e 76bb
00000370: bb59 1c3d cdc4 bcbc a85e 3dbd 8c47 39be
00000380: 883a 203d 7f8a 803b 842d 99bd 3b60 cbbd
00000390: c5bf a33c ed8e 35bb b278 0bbe e73a 92bd
000003a0: 44a7 19be 8698 9e3c 4899 5bbd 4d35 98bc
000003b0: 669d d63c f8c1 63bd 75ab 23bd be95 98bd
000003c0: 0520 bc3c ffbe 313c fb27 a93d 9697 48bd
000003d0: 2db9 5ebd 0f21 12be 422a 493d 484a cdbd
000003e0: b749 173d 8dd4 18be 8ca9 3dbd 5d04 b73d
000003f0: 5388 b1bd 22da cabc cf25 013c ccb0 fd3c
-0.03758526 0.014532113 -0.070043206 -0.05308484 -0.04360675 0.04865565 -0.082697056 -0.007429498
0.060647577 0.07037983 0.096442476 -0.008084441 0.05105801 -0.15594216 -0.02215987 0.013646094
-0.15857236 -0.022897005 0.08625498 -0.08476534 0.079820104 -0.06763925 -0.010003575 0.09131574
-0.043397024 0.07963736 0.14051428 -0.02972641 0.09108046 -0.044287305 0.14971156 0.007223313
-0.01443975 -0.005943925 -0.050922982 -0.056522325 0.026472496 -0.15736243 -0.07812612 0.09011804
-0.03452843 -0.05618137 -0.08340736 0.029210335 -0.051891904 -0.07365464 -0.032913394 -0.03786735
0.0927692 0.0463733 0.08775636 0.030897629 -0.03744684 -0.06879524 -0.001186464 0.101884454
-0.062283505 0.061557326 -0.042027652 -0.10081324 0.07290195 0.15076932 0.1440258 -0.053726483
-0.07530169 0.09424946 -0.12173139 0.047021933 0.107870445 0.044447392 0.072751515 -0.054456204
0.09875258 0.04992241 0.21836647 0.08409243 0.11724062 -0.017487574 -0.01746474 0.022548415
-0.010116471 0.004347344 0.033782125 0.06281546 -0.12584445 0.026986713 -0.097225435 0.09155272
0.1395683 -0.056971822 -0.055157878 -0.046390805 0.08128208 0.0060530067 -0.06981997 0.02092413
-0.022450704 -0.08966659 -0.054886673 -0.016448995 0.16635978 0.15362269 0.037026532 -0.052824825
-0.0031909945 0.15335621 -0.08525495 -0.07842273 0.05216631 0.14233662 0.09474467 0.050163787
0.020134877 -0.071384765 -0.06506741 0.08498106 -0.012018896 -0.07060764 0.01569123 -0.004893188
0.03652367 -0.08357559 -0.038525384 0.06930145 0.051756725 0.042782195 0.09835364 0.1538336
0.09241396 0.10644093 0.12634328 -0.018709246 0.06217143 0.043722507 -0.047607914 -0.12425105
0.14695473 0.14757998 -0.0316931 0.10187368 0.14819269 -0.03787189 0.008304743 0.08280143
-0.057239935 0.018227473 0.010439606 -0.030182162 0.098395444 0.058189023 -0.09112361 0.02297296
0.08843762 0.034193184 -0.05424729 0.14387469 0.02735353 0.05661885 0.00961236 0.123501725
0.022386305 -0.052726056 0.08001273 0.043490753 0.098943286 -0.06732069 0.08297264 -0.007949279
-0.09759434 -0.077159844 0.06499091 -0.056130692 0.16523476 0.0039351527 -0.048064835 -0.004476617
0.102032945 0.08792238 0.13734193 0.07408749 0.09997222 0.17628987 -0.098587304 0.009379457
0.020525904 -0.003642643 0.0817377 0.052956678 0.0011730697 0.012138542 0.15571217 0.06954844
0.047690157 -0.04876064 -0.014890292 0.08878994 -0.0033109144 -0.07478983 -0.12833668 -0.13138148
0.01643783 -0.035271462 -0.15777802 -0.09694793 -0.14195801 -0.17201912 0.042847168 0.05096839
-0.08205928 0.064479165 -0.019897042 -0.081357785 -0.030945787 -0.06834726 -0.075816125 0.059693485
-0.019602017 -0.0016576805 0.0078079402 -0.0037564193 0.03817151 -0.02304306 -0.04623285 -0.18093699
0.03911832 0.00392276 -0.074793845 -0.09930464 0.019988904 -0.0027703599 -0.1362026 -0.07140141
-0.15005213 0.019359838 -0.053612977 -0.018580103 0.0261981 -0.055604905 -0.039958436 -0.07450436
0.022964487 0.01084876 0.08259579 -0.04897269 -0.054375816 -0.14270423 0.049112566 -0.10023934
0.036935534 -0.14924832 -0.04630427 0.08936379 -0.0866858 -0.024762217 0.007882549 0.030968092

gcl_0.node_mlp.0.bias f4 [64]
00000000: d307 7fbd c772 5bbd 8b68 ab3d ff6b 083e
00000010: e82f a0bd a2a6 cd3c 7bc6 b0bc e5b7 e33d
00000020: 246d a83b 93b0 3dbd a6ca 803d 21fd 613b
00000030: 89c3 4f3d 4bdb a53d 3cef fdbc e9fb 0c3e
00000040: 786d ccbd 3c37 aebb 082a 90bc 2584 123d
00000050: c7b1 e9bd cbce 34bd 42db 53bc 5ba4 1c3e
00000060: f5a3 d9bc 27a5 253e 1b0d f1bd b9b3 8a3d
00000070: 72db b4bd 34e6 23bd 87f7 4f3d b1eb 1e3e
00000080: 33b1 4a3d 0d8b 5abd 9c5e 71bd cf01 813d
00000090: 7989 ab3d cd66 40bb 6dbe 84bd 37c2 83bb
000000a0: 330d 363d c2e4 243e b625 143e 360e c23c
000000b0: 0d25 ce3d 9137 04bc f0a4 8cbc f597 913d
000000c0: ee77 bb3d 17ad 06bd 6678 4b3d 6df3 663d
000000d0: 76ff 883d f2b8 1abd 9e18 e13d c2f1 573d
000000e0: a8b0 8b3d 9509 6e3c 341c c33d 179e eebc
000000f0: a980 833d 99c7 b4bc 0998 91bd ebf1 463d
-0.06226332 -0.053576257 0.08369549 0.13322447 -0.078216374 0.02510387 -0.021579018 0.111190595
0.0051399637 -0.046310972 0.06288652 0.0034483152 0.050723586 0.080984674 -0.030997865 0.13767971
-0.09981817 -0.005316643 -0.017598167 0.035770554 -0.114108615 -0.044142526 -0.012930693 0.15297072
-0.026567439 0.16176282 -0.11770078 0.067725606 -0.08830918 -0.04001446 0.05077317 0.15519597
0.049485397 -0.053355265 -0.058928117 0.06299173 0.0837583 -0.002935815 -0.06481633 -0.004020955
0.04444618 0.16102889 0.1446751 0.023688417 0.100656606 -0.008069889 -0.017168492 0.07109062
0.09153734 -0.032879915 0.049675368 0.056384493 0.0668935 -0.037774034 0.109910235 0.052720793
0.06820804 0.014528652 0.09526864 -0.029128117 0.06421024 -0.022067832 -0.071090765 0.048570555

gcl_0.node_mlp.2.weight f4 [64, 64]
00000000: e0e8 063d cce1 bc3d 14d7 e83d 8d76 433d
00000010: 1790 233e 023c fdbd 9e41 f93d 6ca3 85bc
00000020: 297f ccbc 1f18 42bc cd6f 153e 3d43 c53d
00000030: 3c1c a13d 3211 9e3d 9979 203e 44bd 773d
00000040: a7e1 333e de55 383d 8324 ef3d 95d7 ab3d
00000050: 4fbe 3bbd b586 cf3d b3b0 233d 46da 9bbd
00000060: ba7a 823d ddd9 423e c5f3 943c 8f4a 983d
00000070: ea9b e83d e2aa ba3d 0f25 a93d 73ea a43e
00000080: 8255 413d 6331 703d e5e2 e4bd 4954 d33e
00000090: 3b87 6cbd 20fa ce3d 2629 233e 284a 913d
000000a0: 133c a03c 3a41 9e3e 965f 9e3e a617 89bc
000000b0: 9a2b 1ebb 7eed bbbd 99dc d33a 780d 8f3e
000000c0: 5b8a d7bb 87c6 e9bd b68c 5d3e baad 043d
000000d0: e95a e3bd cb12 dd3d 614a 61bc 1c32 9bbd
000000e0: db9c 28be 1ecd 813d c033 6f3d 0294 0dbd
000000f0: 2231 013e 3bbd 1a3b ae44 0a3e 42e5 113e
00000100: 94f7 fdbd 0ce8 be3c 8116 4f3d afa3 6f3d
00000110: 52af 11be 5f2e dd3d e2ac 03be c95c 7fbd
00000120: 2e5a 0ebe fa7b c33d 9bd5 163e 517a c8bd
00000130: b760 e3bd 070a 85be bce1 25be ea63 b13c
00000140: 1533 db3c 5536 253b e43e f1bd 1976 3ebd
00000150: c552 933d 7e81 473b 7834 0fbe 8648 0dbc
00000160: ee0d 773d 8443 e2bd 46ca 24be 1c30 383d
00000170: fd60 8abc b88f 2dbd 8e75 623d bf64 8dbe
00000180: 5660 45be b4d9 f3bc d7eb ab3d b4c4 3abe
00000190: f6e8 14be bd44 113e 6080 dcbd 9eb6 35bc
000001a0: 8c25 a3bc d03b 94be 39bb 43be 1a03 e5bd
000001b0: c317 123e a6c9 a1bd 6a02 cf3c 171b 93be
000001c0: c5a4 f73d e403 34be 4f4c 1dbe 5333 373c
000001d0: ab7d 25be 8471 57be 55f9 713d 7e55 02be
000001e0: fef9 993d b662 ee3d 3ec2 95be 6d70 7b3d
000001f0: e5bb c8bd 7390 86bd 40eb 163e a0da f5bc
00000200: f3a6 9f3d 7a63 3abd 37a5 b9bc 3e8a c5bd
00000210: bbb4 f3bd 3526 103d a000 89bd 276d 3bbd
00000220: 7495 b4bd ecfb 54bc c461 073d b7e7 2a3d
00000230: f6a0 67bd e2de d53d 3e56 01be 08d5 51bd
00000240: 389f 83bd 18f4 aebd e3e4 30bc 6e2b 713c
00000250: 8906 3ebd 74cc a2bd 5cb9 1abe fcb0 f0bd
00000260: 9d0f 283d 334c c5bc 844a c93c de07 8abd
00000270: b20c 093e 39ba 10be 84c1 04be 22be 24be
00000280: 1a08 e43c 32f8 213d 95a6 e53d 8003 81bd
00000290: 2b71 4cbe e7e4 e3bd b554 b6bd d603 06bd
000002a0: 33bf 783c c961 36bd a979 6b3a f5e6 8a3d
000002b0: b008 233c 996d b0bd 0745 043e c631 b13c
000002c0: 0c12 a43d a413 10bd c97d 8abd 3695 663d
000002d0: d1a2 4cbd e0ae bdbd 987c 553e 728b ef3c
000002e0: 4b24 c03d b6f8 91bd 8dc5 b9bd e46b 003c
000002f0: e186 dcbb e324 8dbb bb95 d9bc 53d4 ae3d
00000300: 8bc4 95bd 680f 213d 47d4 083e feb4 983d
00000310: 2d76 66bd aeee cb3c d820 d8bd 6369 59bd
00000320: ce62 7abd 4427 e43d 621c 083e 6189 c5bc
00000330: 655e 1c3d 7db5 bfbd ab70 e4bc 2776 923d
00000340: eba1 e2bd 0d01 513d e4c9 fc3d 41e9 c23d
00000350: 838f df3c 6484 dc3d 5518 053c 477e d8bd
00000360: da65 4b3d 4737 9e3d f6e1 763d a91f 0d3e
00000370: 7535 2cbd f1a5 363e 37ce 0bbd 0fb2 163d
00000380: 25b3 3bbd 5d6e 783d 4c41 09bd a84b 4d3c
00000390: a758 91bc 9d8b a8bd 8f46 3cbd 660b 813d
000003a0: b9dd 473d cec1 023e 21ce 413d 0d42 2b3c
000003b0: 3bbd e43d eb55 693d b9d0 563d cb01 2e3e
000003c0: 8d32 8abd 2629 6fbc 5a36 303b 9b60 073e
000003d0: 3d2d 3cbd d62f afbd d21f ea3c 0106 25bd
000003e0: 4b0c 063d 5165 00be 194e 4fbd 82fb 513d
000003f0: 3f89 a43d 3b3a 85bd 57d5 063d 2fff bb3d
0.03293693 0.09222755 0.11369148 0.04772048 0.15972935 -0.12364961 0.121707186 -0.016313277
-0.024962978 -0.011846571 0.1459343 0.09631965 0.078667134 0.077181235 0.15671386 0.060483232
0.17566548 0.045003764 0.11676886 0.083907284 -0.04583579 0.10133115 0.039963435 -0.07609992
0.063710645 0.19028421 0.018182645 0.07436096 0.11357863 0.091146246 0.082590215 0.3221012
0.047200687 0.05864085 -0.11176089 0.41275242 -0.057746153 0.10106301 0.15933666 0.07094222
0.019559896 0.3090914 0.309323 -0.01673491 -0.0024134875 -0.091761574 0.0016163766 0.27939963
-0.0065777726 -0.11414819 0.21635708 0.03239224 -0.11101324 0.107946 -0.0137506435 -0.07577917
-0.16466086 0.06337951 0.058398962 -0.03456498 0.12616399 0.0023611325 0.13502762 0.14247611
-0.124007374 0.023304008 0.05055857 0.05850571 -0.14227036 0.1079986 -0.12858918 -0.062344346
-0.13901588 0.09545131 0.14729922 -0.09788955 -0.11102431 -0.25984213 -0.16199392 0.021654088
0.026757756 0.0025209386 -0.117795736 -0.046499345 0.071935214 0.0030442174 -0.13984859 -0.008623248
0.06031602 -0.11048034 -0.16092786 0.044967756 -0.01689195 -0.04237339 0.05528789 -0.27615926
-0.1927503 -0.029766895 0.08394592 -0.18239099 -0.14541993 0.14186378 -0.10766673 -0.011090903
-0.019915365 -0.28951883 -0.19114389 -0.11182232 0.14266877 -0.078997895 0.025269706 -0.28731605
0.12091974 -0.17579609 -0.1536114 0.01118167 -0.1616122 -0.21039397 0.059075672 -0.12727925
0.07518385 0.11639921 -0.29249758 0.061386514 -0.09801463 -0.0657052 0.14738178 -0.030011475
0.07795515 -0.045505024 -0.022661788 -0.09645508 -0.11899706 0.035192687 -0.06689572 -0.045758393
-0.088175684 -0.012999516 0.03305222 0.041724887 -0.05654999 0.10442902 -0.12630555 -0.051228553
-0.06426853 -0.08542651 -0.010796758 0.014719827 -0.04639295 -0.079491526 -0.15109771 -0.11752507
0.041030515 -0.024084186 0.024571665 -0.06739782 0.13383749 -0.14133538 -0.12964445 -0.16088155
0.027835894 0.039543338 0.112134136 -0.06299496 -0.19965045 -0.11127644 -0.08902875 -0.032718502
0.015182304 -0.04452685 0.00089826674 0.06782333 0.009950802 -0.08614654 0.12916957 0.02163018
0.08011255 -0.03517498 -0.06762273 0.056294642 -0.04995996 -0.092618704 0.2084831 0.029241297
0.09381922 -0.07127516 -0.09070883 0.007838223 -0.006729946 -0.0043073758 -0.026560655 0.085365914
-0.07312878 0.039321333 0.13362227 0.074563965 -0.056265045 0.024894085 -0.105531394 -0.05307902
-0.061129384 0.11140302 0.13292077 -0.024113359 0.03817596 -0.09360788 -0.027885756 0.07151442
-0.1106604 0.051026393 0.12343195 0.09517146 0.027290111 0.10767439 0.008123477 -0.105709605
0.04965768 0.07725387 0.060274087 0.13781609 -0.042043168 0.17836739 -0.03413221 0.036790904
-0.045825142 0.060652126 -0.033509538 0.012530245 -0.017742468 -0.08229754 -0.045965727 0.06301002
0.048795436 0.12769243 0.04731572 0.010452759 0.11168905 0.056966703 0.052445147 0.16992871
-0.06747923 -0.014597213 0.0026887865 0.13220446 -0.04594158 -0.08554046 0.028579626 -0.04028893
0.032726567 -0.12538649 -0.05061159 0.051265247 0.0803399 -0.06505247 0.0329183 0.09179532

gcl_0.node_mlp.2.bias f4 [64]
00000000: 70eb f8bd 7a72 8f3d 2749 58bc e62f 27be
00000010: 832e 443d db41 1d3d b1db ccbd 1ac7 fb3c
00000020: e70a 87bd 6652 e93d bfde 37bd a2ed e03c
00000030: ff3a 5b3d 7115 143e 6118 a53d ebb3 e93c
00000040: 20fe 303d 2475 12be dc0f c73d 8a4a ce3d
00000050: 1307 953d 3ed7 9f3c 7def a9bc 4fa4 89bd
00000060: c24f f13c c31b f9bc b702 133d 9d0a 7a3d
00000070: 248f 293d 559f d73d 3c50 04bc 9609 a7bc
00000080: 12b9 fb3d b927 d03d fc77 023c 0fff 373c
00000090: c9b3 04be 6cd3 bf3d 8684 993d ae60 3ebe
000000a0: 266e f23d c4d2 f8bc 05c4 213d 61a6 11bd
000000b0: ae83 11be 8458 ae3d 17e3 153e f2b7 d0bc
000000c0: 6bfa 32bd 8202 bbbd bed3 ac3d 71d6 00bd
000000d0: 7ecf 8a3d 9366 fa3d 7b57 aebd 67a0 643d
000000e0: f87d 52bc 0463 fd3d 478c c13d 7e0f 143e
000000f0: d2ae bd3c 2ab0 9d3d 634d 6dbd 1c50 03bd
-0.12154281 0.070042565 -0.013201035 -0.16326866 0.04789592 0.038392883 -0.1000284 0.030734587
-0.06593876 0.113926694 -0.04489016 0.027457062 0.05352306 0.14461304 0.080612905 0.028528174
0.043211102 -0.14302498 0.09719822 0.10072811 0.0727674 0.019511815 -0.02074408 -0.067207925
0.029456977 -0.030408746 0.03589126 0.061045278 0.041396275 0.10528437 -0.00807577 -0.020390313
0.12291159 0.101638265 0.007963177 0.011230244 -0.12959208 0.093664974 0.0749598 -0.18591568
0.118374154 -0.030373938 0.03949358 -0.035559062 -0.14210388 0.08512977 0.14637409 -0.025478337
-0.04369585 -0.09131338 0.08438824 -0.031454507 0.06777857 0.12226596 -0.08512779 0.055817034
-0.012847416 0.12372401 0.09450584 0.14459035 0.02315465 0.07699616 -0.05793513 -0.03205882

gcl_0.coord_mlp.0.weight f4 [64, 64]
00000000: ef18 ebbd a718 6abd fc69 e2bd 0921 cb3c
00000010: 19b9 e2bc a2e9 27be 3123 6b3d f3a6 423d
00000020: 53ea 8abd 0da7 d2bd 5443 ddbd 6b72 2dbe
00000030: 9ba5 31be 33c6 f93d 75c0 a83d 01f3 1a3c
00000040: f38c e53d 0a7f acbd fd70 c2bd e8be c23d
00000050: 626e 87bd 41fb bcbd eff6 4cbd 06cf dcbd
00000060: 53bb 4f3b 4a4a 213d 8307 fcbd 1159 70bd
00000070: b9ed 44bc afa2 8f3b 3538 823d 5c29 7a3d
00000080: 0502 773d 7199 2abe fe72 88bd d4e6 69bd
00000090: eb9f 9f3d f4d4 f13c 4139 463d ad6c f3bd
000000a0: d7d4 21bd 2d0c 093d 4d3e 2c3d e4d8 80bb
000000b0: 3cc3 b6bd 7ea8 c4bd 18f0 1fbe dc07 6ebd
000000c0: d60c 91bd 7b83 34bd 166a 7dbd 5e80 21be
000000d0: b4b2 43bd bf9f feb9 180a 75bd 50a5 b03d
000000e0: de36 bbbd ad18 53be e454 74bb 0fb6 57bd
000000f0: 437e c9bc bf26 25be 5683 85bd 2311 073d
00000100: c2fe 34be dde9 19bd f98d 963c 836a abbd
00000110: b579 a33b 7f52 e6bd 1662 aabd fab6 2b3c
00000120: c21f 85bc a3d8 f83d 9f5c ea3d 481b b73d
00000130: 7265 833d 8cf0 123d b1fa 9b3c 3ff2 183e
00000140: f720 e9bd 60f5 733d 6fb8 53bd bcba 003e
00000150: ea52 0b3d d037 6ebd 158f e5bd 924b 163e
00000160: 294c aa3d 4196 0dbd 67c8 e23d 8153 a0bd
00000170: 144c adbd 9b34 43be 9089 313c 4ae9 b83d
00000180: a9c0 83bc 81ea a33d 9321 ce3c 15c6 93bd
00000190: d5a5 013e 7f76 e4bd de6b b7bc 9719 153d
000001a0: 86e4 4cbe 41b5 a1bc 7867 e9bd ba6f 623c
000001b0: 80eb 0d3e 4315 4a3a 3103 cf3c f321 d8bd
000001c0: 84cb 603e 19e4 00be 3251 763d 4225 3eb9
000001d0: ccc9 823d 9af2 4b3c 1583 3bbe 0e07 b13d
000001e0: 2e37 d83d b8e3 92bd 3d16 81bd db62 943d
000001f0: 294d 9d3d 9187 583c dcea 2bbe 1f58 31bd
00000200: c5c2 0d3e c797 e5bd 6a32 cfbd e8a0 8dbd
00000210: ce9d 01be 9986 c0bb fdcf 00be b381 db3c
00000220: d0d1 29be 06ab c7bd c7fc 26be 3407 26bd
00000230: 52d5 bb3c d5a2 a4bd 915d c53d 6dd8 21bc
00000240: 0c55 3dbd 6b7a a73d fe62 b5bc 915c b13c
00000250: 73d2 b63d e598 6cbe 6428 2fbd 10ac fa3d
00000260: d023 eb3c 8a14 eebc a7b6 adbe 8a2f e83d
00000270: d0ed f73c cf11 32be 5e77 aa3d 5636 20be
00000280: 3acc 8bbd 5610 47be f4c7 e2bd 60ae 48be
00000290: 846e 603d 76e9 abbd 8423 43be 5cae 8dbe
000002a0: 3f8e ee3b d30f 063d bafb 3f3d 7e87 9bbd
000002b0: f7e6 f43c 728b 87bd efe4 09be 4377 2cbe
000002c0: 01d6 8cbd d811 253d 3e0b 66be c974 89bd
000002d0: b8c8 93bd 95bb a6bc 2e35 b3bd a184 f43c
000002e0: 6485 c8bb daf9 54be 1e98 b1bd 467f a93c
000002f0: 6fb8 0ebe 90ee 1dbe 50b2 34be d555 06be
00000300: 385b 2dbe 2bd8 253d 486a 423d 2926 753d
00000310: 6020 d13d 5398 01be 59d1 093e 232f b8bd
00000320: 83c7 94bd 78db 4f3e 2ed4 c73d e9ee 933d
00000330: 655e 1d3e 5064 0dbe 09a9 f3bd b544 ae3d
00000340: 4026 5cbc b307 c73c cd43 86bd 8ed6 5f3d
00000350: 6995 cdbd 9f64 5d3d 8b1d 54bd b1a4 e43d
00000360: d365 e9bd fab4 17be 7426 833c 3c85 1f3d
00000370: fbad e5bd 1d49 62be c455 6c3e 90aa 6e3e
00000380: cdba 173d 95f9 b8bd 7cc5 08be f36c 29be
00000390: fa84 813d 1376 5a3d f72f 81bd 7ee6 02bc
000003a0: 4fa8 08be 3c6b 243d 9702 1b3e 3057 a6bd
000003b0: d813 5fbd 0655 89bd 1a0b 053d 2a18 90bd
000003c0: ace9 d23d 447b 7dbd dfcd a93c 22ad 043e
000003d0: 6e50 0dbd c937 2c3c 6503 9ebd 515e 81bd
000003e0: c78e 46bd 2735 74bd 286f 243d ceb1 483d
000003f0: 5e59 9cbd a95e 1d3d 435f c6bd 2df2 5ebc
-0.11479365 -0.057152417 -0.11055371 0.024796026 -0.027676152 -0.16397718 0.057406608 0.047522496
-0.06782975 -0.10285769 -0.108038574 -0.16938178 -0.1734833 0.121960066 0.08239833 0.009457351
0.112085246 -0.08422668 -0.09494207 0.09509069 -0.06612851 -0.092276104 -0.05004018 -0.10781674
0.0031697347 0.03937749 -0.1230612 -0.05867869 -0.012019568 0.004383407 0.06358377 0.0610746
0.06030466 -0.16660096 -0.06662558 -0.0571049 0.07794174 0.02952049 0.048394445 -0.11885963
-0.03950962 0.033458877 0.042051602 -0.0039321054 -0.08923957 -0.0960245 -0.15618932 -0.058112964
-0.070825264 -0.044070702 -0.06186875 -0.15771624 -0.047777846 -0.00048565675 -0.05982408 0.08625281
-0.091413245 -0.20614882 -0.0037282044 -0.05266386 -0.02459634 -0.16128062 -0.06519191 0.032975327
-0.17675307 -0.037576545 0.018378245 -0.08369925 0.004988874 -0.11246204 -0.0831949 0.010480637
-0.016250495 0.12150695 0.11443447 0.0894075 0.064158335 0.035873935 0.019040437 0.1493616
-0.11383241 0.05956018 -0.05168956 0.12571234 0.03401462 -0.058158696 -0.11208931 0.14677265
0.08315308 -0.03456712 0.1107338 -0.07828427 -0.084617764 -0.19063036 0.01083602 0.09028871
-0.016083078 0.080037124 0.025162494 -0.072155155 0.12660916 -0.11155414 -0.022390302 0.036401358
-0.2000905 -0.019739749 -0.11396688 0.013820583 0.13859367 0.0007708857 0.025270076 -0.1055335
0.21952635 -0.12587012 0.060136028 -0.00018133692 0.06386146 0.012447977 -0.18311723 0.08643924
0.105574 -0.0717234 -0.0630307 0.07245418 0.07680733 0.013215915 -0.1678881 -0.04329693
0.1384383 -0.1121059 -0.101170376 -0.06915456 -0.12657854 -0.0058754203 -0.12579341 0.026795244
-0.16583943 -0.09749417 -0.16307364 -0.040534213 0.022928867 -0.0803887 0.09636987 -0.00987826
-0.046223685 0.08177646 -0.02214193 0.021650584 0.08926859 -0.231052 -0.04276313 0.122398496
0.0287036 -0.029062528 -0.33928415 0.11337192 0.030264765 -0.17389606 0.08323549 -0.15645728
-0.068260625 -0.19439825 -0.11073294 -0.19597769 0.054792896 -0.083941385 -0.19056517 -0.27672088
0.0072801406 0.032729935 0.046870925 -0.075942025 0.029895289 -0.06618394 -0.13466237 -0.1684237
-0.068767555 0.04030022 -0.22465226 -0.06711728 -0.072160184 -0.020353118 -0.087503776 0.029848399
-0.006119417 -0.20798436 -0.08671592 0.020690572 -0.13937543 -0.15423036 -0.17646146 -0.1311868
-0.16929328 0.040489357 0.04746464 0.059850845 0.10211253 -0.12655763 0.13458766 -0.089933656
-0.07264616 0.20298564 0.09757267 0.07223303 0.1536804 -0.13807797 -0.11897475 0.085091986
-0.013436854 0.024295663 -0.06555901 0.054647975 -0.10038263 0.054051038 -0.051785987 0.11164225
-0.113963746 -0.14815131 0.016009547 0.03894542 -0.11214825 -0.22098203 0.23079592 0.23307252
0.03704338 -0.09031979 -0.13356584 -0.16545467 0.063241914 0.05333526 -0.06307977 -0.007989524
-0.13345455 0.04014133 0.15137707 -0.081220984 -0.054462284 -0.0670567 0.03248129 -0.07035859
0.102984756 -0.061885133 0.02072805 0.1295667 -0.03450053 0.010511347 -0.07715491 -0.063168176
-0.048476007 -0.059621003 0.04014507 0.048997693 -0.07634233 0.038420353 -0.096861385 -0.013607544

gcl_0.coord_mlp.0.bias f4 [64]
00000000: f596 9bbc 3cc0 c9bd 1681 eb3d 3465 a73d
00000010: 5add e03d bf2c a83d 0422 01be 2128 fa3d
00000020: ca11 aebd 788b f1bc 5cb8 08be a334 e33d
00000030: ca8b ea3d 2f4a d43c 5156 22bd 0698 c53d
00000040: 6992 093e 3a2a 2cbb c4f2 ab3d 08d4 6f3c
00000050: 4cf6 05bd 4b71 f93d a658 32be 90cf 5fbd
00000060: b13d d03d 2e5e 723d d20d ea3d 46f2 4fbd
00000070: 7326 0e3d a4db a43d 0d77 ea3c c284 e3bd
00000080: 6426 063c a81a 233d 3566 60bd 5acf 96bc
00000090: 0abc 85bd a9c7 d63d 71c5 293d 4090 3cbd
000000a0: f2fd 4b3d 3911 a3bd e77f e83c a812 28bd
000000b0: 275c 173c 9dfd a43d c221 493c 3672 053e
000000c0: 13db bc3d b0e9 f73c 59e9 d6bc e9e5 8abb
000000d0: 5976 0dbd 48f2 ee3c 84d2 1f3d a4ed 953d
000000e0: 7438 e5bd 344d 01be 4eff aa3b 17b8 fb3d
000000f0: dc30 003d 5393 52bd f2c8 d13a 2e7a 9c3d
-0.01899288 -0.09851119 0.114992306 0.081736 0.109797195 0.0821166 -0.12610632 0.12214685
-0.08499487 -0.02948545 -0.13351578 0.11094024 0.11452444 0.02591428 -0.0396331 0.09648137
0.13434757 -0.0026270286 0.08395913 0.0146379545 -0.03270559 0.12179812 -0.17416629 -0.054641306
0.10168017 0.059171848 0.11428417 -0.05076816 0.034704637 0.080497056 0.028621221 -0.11109306
0.008187864 0.039820343 -0.054784972 -0.01840942 -0.06530006 0.10487301 0.04144806 -0.046036005
0.049802728 -0.07962269 0.028381301 -0.041033417 0.009238279 0.080561854 0.012276115 0.1303185
0.092214726 0.030262798 -0.026234316 -0.004238833 -0.034536693 0.029168263 0.039019123 0.07320717
-0.11192408 -0.12627107 0.005218423 0.12290972 0.031296596 -0.05141003 0.0016005321 0.076404914

gcl_0.coord_mlp.2.weight f4 [1, 64]
00000000: 327c b23c 4717 08bd 2596 8b3d 5d40 d9bd
00000010: a7a0 d3bc 9908 c13d 61f1 913c 7f9e 0c3e
00000020: 69b4 823d c0df 27bd 261a cb3c 2cb4 21bd
00000030: 5985 ea3c 221b 0dbd 3d6f 473d 3605 9e3d
00000040: 71d1 4fbd 1ef8 dbbc 3742 aa3c 348d 403d
00000050: 8ad5 01be 7b54 f1bc 71f3 f33c 9c5e 8ebd
00000060: 318c 78bd 2b38 0c3d 4376 e83d 0336 b2bd
00000070: 02ee 51bc 266f f13d ceb9 803c bd27 75bb
00000080: 9ca3 bfbd 1fb4 c53c 364f 0dbd b95b 65bd
00000090: 3583 b53d f1e9 df3c f7c1 a7bd a67f e43d
000000a0: 1a77 84bd 8f9f 3bbd ba48 babc 8c2d adbc
000000b0: 9c67 5ebd 67da e33d ddd7 1b3d e938 b6bd
000000c0: fd3b c5bc 4fe4 a03c 7e22 a5bc 92e8 c6bd
000000d0: 21a2 333d 53ef c93d 2ec7 56bc 22fa 40b9
000000e0: f4c3 02bc 575f 18be 600d cd3a 23ff 543d
000000f0: 7471 99bd 2439 7d3d 61fc 8abd a03e 843d
0.021787737 -0.033225324 0.06815747 -0.106079794 -0.025833441 0.09425468 0.017815294 0.13732336
0.06382067 -0.04098487 0.024792742 -0.039478466 0.028628038 -0.034449704 0.04869007 0.07715838
-0.05073685 -0.02685171 0.020783527 0.04700966 -0.12679115 -0.029459229 0.029779168 -0.06951639
-0.060680572 0.034233253 0.11350682 -0.08701708 -0.012813093 0.11788778 0.015713599 -0.003740772
-0.09357378 0.02413374 -0.03449937 -0.055995677 0.088629164 0.027333232 -0.08191293 0.111571595
-0.06468029 -0.045806464 -0.022739757 -0.021139883 -0.05429803 0.11125641 0.03804766 -0.088975735
-0.024076456 0.019640116 -0.020158049 -0.09712328 0.04385579 0.098601006 -0.013109012 -0.00018403729
-0.007981289 -0.1488012 0.0015644245 0.05200113 -0.074923426 0.06182207 -0.06786419 0.06457257

gcl_1.edge_mlp.0.weight f4 [64, 130]
00000000: a10e c1bd 8213 e93d a4ff 1d3e 7ace 1cbc
00000010: 5b6b 943d 2fd5 b93d 32b4 433c 4303 573c
00000020: f42a d23d 1ff0 5cbd 6ad7 b03d b151 b33d
00000030: 1412 6e3d 2c7c e03d 40ca ac3d 4fc6 29bd
00000040: 34f9 1f3e 7bb8 0d3e 410c 2a3e 87dc 643d
00000050: efbc 05be eb88 fa3d 0f83 36bd 2300 8ebd
00000060: 66f3 acbc eaea 2bbd bb7c b2bc fd85 003e
00000070: 155f ccbd de25 9abd 8cd4 323d d86d 2bbe
00000080: 5a13 953d be30 0b3e 9efa b83c 7292 94bd
00000090: d79d 25be 1402 4a3e e616 893d 6036 e23c
000000a0: 0c5e 2c3c 0a85 803d b989 e6bb 419c fd3c
000000b0: cf4f e43d eebc fd3d 9bd7 963d f40d 2a3c
000000c0: 3dfc b0bd 96fa c3bd 68cd db3c 64eb 92bd
000000d0: 6170 44be da83 19bd 8f43 ba3c d6de 493d
000000e0: 91bd 8e3d 3e2f dbbc 31df fcbc 99e6 a03d
000000f0: baba 4cbd 9e14 263c 3f3f c1bd 2452 6ebd
00000100: 4279 763d 4bd6 01be 7f45 f7bd 094b da3d
00000110: fd79 203e aedd a7bd ac42 c4bd 3a7b 7e3d
00000120: 318a d8bd e699 ad3c 93db 233d 0403 80bd
00000130: 5417 68be 3fd0 79bd 2653 4cbe 4146 9a3d
00000140: fc21 c6bd 2d4c adbd 3799 01be 2bbe b0bd
00000150: b3d7 98bd 811c d3bd 55d8 ed3c 7656 f03d
00000160: bad2 b8bd 11b4 adbb cad3 14bd 1421 bfbd
00000170: 4c4c e2bb 6986 223c 834b cebd 8977 553e
00000180: 1a4d f2bd f8e6 15be 3d48 1d3e 982a 733c
00000190: 4b1d 043d 92cf b73b 9410 62be de6c 963d
000001a0: 777f 06be bf54 f1bc 3f67 67be 066e 89be
000001b0: 0225 2dbc b092 f0bd e4a0 f0bd edd7 bb3c
000001c0: 90b3 01bd bc5d ac3c 5062 063e b7e6 e03d
000001d0: e66a 2e3e 456c 4fba 3cd3 91bb 10e3 86bd
000001e0: f8ea 803d e1bc 383d 862c debd a8be 71be
000001f0: 8b29 55bc 4835 f9bd 9397 8abd 0f47 a23d
00000200: 8e47 c5bc 41d1 ebbd 0f2b f8bd 3dcd ea3d
00000210: 772d b9bd 22fc afbd 7f94 48be d53d 25bd
00000220: 05d9 463e 20fe fe3d 9971 22be 3a74 4a3d
00000230: 494c 143d 3a32 3f3d 1930 333d 2e1d f4bd
00000240: 4c8b ca3d 5ed6 7ebc 7ebf db3c 0d1c 2ebc
00000250: 4b9d 033e 6937 fb3c a3cc 6bbb e5e2 b03c
00000260: 03fa d13d 23a3 d1bd b066 babd c43e 5bbd
00000270: b2b1 24bc a97e 873d 8361 ae3d daf9 443c
00000280: a8eb 713c 5486 dd3c 8c5f 41bb 1eba f63d
00000290: e93f 3e3e 0c11 fe3d d833 f9bd e5a2 c53c
000002a0: 4e1d 74bd 2a4c 79bc c841 cabc e2cc b7bc
000002b0: 06ac 00be d10e 743d a55e b33c a07a c5bd
000002c0: 27ef 2c3e ef4e 753d 3e27 f93c b697 0cbc
000002d0: b9ac a9bc fb70 e4bd 2b34 cf3d b8c2 afbd
000002e0: ec82 2dbd 9559 20be 27ae 0c3d de07 83bd
000002f0: a740 2abd bd01 8dbd 277f 8e3c 338a 14be
00000300: e0b6 d23d d8e1 ef3d 5802 a53c f8e3 473d
00000310: a491 3cbc 945c 87bd 9369 4ebd e2b7 973d
00000320: b1fe 1b3e ed9a 1e3e 24e7 14be edd8 3f3c
00000330: 7950 573d 57aa 1fbe 7ae3 9fbd 90c7 c4bd
00000340: 623b 9f3d 1aaa 14be 3850 d83d c1d8 b1bd
00000350: 8518 0b3e ea7c d9bd 1df6 abbc e6c3 adbd
00000360: bc88 933d d083 f03c 6222 2fbd c488 2ebd
00000370: a81f d23d 72a1 cdbc 3051 403e d4f4 babc
00000380: ccfa 6bbd 1a36 0a3e 8514 5c3d dba6 583c
00000390: f74f 443e cfaa da3d 01d2 e4bc c6d6 ac3c
000003a0: a197 53bd 4766 0d3e c20e 79bd 9cc5 41be
000003b0: 88d3 3dbe 1f18 b63d 02a0 f43d b9fa 17bd
000003c0: a66e 853d ee49 253e b604 133e 8597 34be
000003d0: 9b9a 56bd 0f34 dfbd 0b74 1fbd ba8b bcbd
000003e0: 0e22 aa3d ac53 5dbe 810e 8e3c a954 c5bd
000003f0: eeb5 58bd c060 6abd 890c cc3d 4aff 25be
-0.09426618 0.11380674 0.1542955 -0.009570712 0.07247039 0.09073865 0.011944817 0.013123336
0.10262099 -0.053939935 0.08634837 0.08755816 0.05812271 0.10961184 0.084370136 -0.041448887
0.15622407 0.13839905 0.16606237 0.055874374 -0.13060354 0.12233146 -0.04455858 -0.0693362
-0.021112155 -0.04197208 -0.021787992 0.12551112 -0.09979073 -0.07526754 0.04365973 -0.16741121
0.07279082 0.13592812 0.022580441 -0.07254495 -0.16173492 0.19727355 0.06693821 0.027613819
0.010520469 0.06275375 -0.007035461 0.030958297 0.11148035 0.12389551 0.07365342 0.010379303
-0.08641861 -0.0956928 0.026831344 -0.071738034 -0.19183494 -0.03747926 0.022737293 0.04928478
0.06969751 -0.026755925 -0.030868145 0.07856483 -0.049982764 0.010136751 -0.09435891 -0.058183804
0.060174234 -0.12679403 -0.12073802 0.10658843 0.15671535 -0.08196579 -0.09583029 0.062129237
-0.10573233 0.021191549 0.040004324 -0.06250575 -0.22665149 -0.060989615 -0.19953594 0.07532931
-0.09674451 -0.08461795 -0.12656103 -0.08630022 -0.07463016 -0.10308171 0.02903382 0.11735241
-0.09024568 -0.0053010066 -0.03633479 -0.09332481 -0.006906068 0.009919741 -0.100729965 0.2084638
-0.11831112 -0.14638889 0.15359588 0.014841698 0.0322545 0.005609461 -0.22076637 0.073449835
-0.13134561 -0.029459355 -0.22597979 -0.26841754 -0.010567905 -0.117467284 -0.117494375 0.02293011
-0.031665385 0.02104079 0.1312344 0.10981505 0.17032966 -0.0007912557 -0.00445023 -0.065862775
0.06294817 0.045102004 -0.10848336 -0.23607886 -0.013010393 -0.12168366 -0.06767192 0.079237096
-0.024081971 -0.115145214 -0.12117588 0.11464927 -0.09041875 -0.085930124 -0.19587897 -0.04034217
0.19418724 0.12450814 -0.15863647 0.04942725 0.036205564 0.04667876 0.04374704 -0.11919628
0.0988985 -0.015554039 0.026824709 -0.010626805 0.12852971 0.03066607 -0.0035980127 0.021592567
0.10252764 -0.10236194 -0.09101617 -0.053526655 -0.0100521315 0.066159554 0.08514693 0.01202246
0.0147656575 0.027041592 -0.0029506413 0.12047218 0.18579067 0.12405595 -0.121680915 0.024125526
-0.05959826 -0.015215913 -0.02468957 -0.022436563 -0.12565622 0.059584443 0.021895716 -0.096425295
0.16888104 0.05988973 0.03041422 -0.008581093 -0.020712243 -0.11154362 0.10117372 -0.085820615
-0.042361185 -0.15659173 0.034345772 -0.06397985 -0.041565564 -0.06885097 0.017394615 -0.14505844
0.10288787 0.11712998 0.02014272 0.048801392 -0.011509333 -0.06609455 -0.050393652 0.0740812
0.15233876 0.15488787 -0.14541298 0.011709434 0.05256698 -0.15592323 -0.078070596 -0.09608376
0.07774998 -0.14518014 0.105621755 -0.08683921 0.13583572 -0.106195286 -0.02099138 -0.0848463
0.072038144 0.029359728 -0.0427574 -0.0426109 0.10259944 -0.025101397 0.1878097 -0.022821821
-0.057612225 0.134972 0.053730506 0.013223375 0.19171129 0.106771104 -0.027932169 0.021098506
-0.051658276 0.13808547 -0.06080509 -0.18923038 -0.18537724 0.088913195 0.119445816 -0.037104342
0.06515245 0.16141483 0.14357266 -0.17635925 -0.052393537 -0.10898601 -0.038929027 -0.09206338
0.08307277 -0.2161395 0.0173409 -0.09635288 -0.052907877 -0.057221174 0.099633284 -0.16210666

gcl_1.edge_mlp.0.bias f4 [64]
00000000: f267 e3bd 7ee0 0cbe 9e8d bebd 96ac 123b
00000010: b949 14be 999e e73c 6654 78bd 3082 9abc
00000020: 0ea1 b8bc 8af2 543d 6058 143c a1ac 39bd
00000030: 304b 24bd 07de 493d 5da4 d73d 1920 77bd
00000040: aae3 5d3d a49c e6bd bec1 a9bc 390f 673d
00000050: 0e65 0d3d c9f1 72bd 8946 033d b0ea eb3d
00000060: 9f76 4b3e c7d8 1c3e f8d1 143d 923d 323d
00000070: 3b8c 87bd af4e 933d 5eca 9bbd f50a cd3c
00000080: 06af cabd b0cc 1e3d 2e47 2c3d 08d4 f13d
00000090: 245e 0bbd bb52 ab3c e0dd 703c 3423 953d
000000a0: 7e0a 753d 6222 bdbd ee69 a33d 8855 823c
000000b0: b264 cb3d f2be db3b d786 183b bd97 f33d
000000c0: 4591 b0bc 21ce c1bd 6923 513d 8387 f93c
000000d0: 1f56 a6bd 9f28 b4bd 7461 593c 8902 96bc
000000e0: 89a3 363d 5f1f 8e3c f0dd b9bd dc64 abbd
000000f0: d293 c5bc 6a47 9b3b 52b3 6a3d 9868 173d
-0.1110381 -0.13757512 -0.09304355 0.0022380701 -0.14481248 0.028273867 -0.060627364 -0.018860906
-0.022537734 0.051989116 0.009054273 -0.045330647 -0.040110767 0.049284007 0.10529397 -0.060333345
0.054172195 -0.112603456 -0.020722266 0.056411 0.0345202 -0.059312616 0.03204969 0.115193725
0.19869469 0.15317069 0.036333054 0.04351575 -0.06618544 0.07192742 -0.07606958 0.025029639
-0.09896664 0.038769424 0.04206007 0.1180802 -0.034025326 0.020913472 0.014701337 0.07282105
0.05982446 -0.092350736 0.07979189 0.015909925 0.099313155 0.006706112 0.002327373 0.11894176
-0.021553645 -0.09463144 0.05105916 0.030460125 -0.08121895 -0.0879681 0.013267864 -0.018311756
0.044589553 0.017348943 -0.09075534 -0.08368847 -0.024118338 0.004738738 0.05729992 0.036964983
